basic_bot/model/mental_health_doctor.pth (torch, 32330 bytes, 6 tensors)

fc1.weight f4 [16, 280]
0	0x3df9fbda	0.1220624
1	0x3e7896c2	0.2427626
2	0x3f0759e7	0.52871555
3	0x3ee3f990	0.4452634
4	0x3e8e9ce3	0.2785407
5	0xbdc7115f	-0.0972011
6	0x3eabe69e	0.33574384
7	0x3f23a74d	0.63927156
8	0x3f0f798d	0.56044847
9	0xbef8c670	-0.48588896
10	0xbda075cc	-0.07834968
11	0xbed81026	-0.4219982
12	0x3df199fd	0.11796949
13	0xbea96ecf	-0.33092353
14	0xbea1a479	-0.31570795
15	0xbf00deff	-0.50340265
16	0x3ddf3a5c	0.10899803
17	0x3f281fb3	0.6567337
18	0x3f1a88af	0.6036481
19	0x3eef114e	0.4669289
20	0x3ebb3749	0.36565617
21	0x3f2e3e91	0.6806422
22	0x3f195056	0.5988821
23	0x3eee8b96	0.4659087
24	0xbf46ce9e	-0.7765902
25	0x3e1e11f7	0.1543654
26	0x3e45d2cb	0.19318692
27	0x3e7d1b78	0.2471751
28	0x3ec71b48	0.38888
29	0xbeabcd84	-0.33555233
30	0x3d9c8c6a	0.07643969
31	0x3f192c49	0.598332
32	0xbef17411	-0.47158864
33	0x3f15a127	0.58449024
34	0xbe0b59df	-0.13608502
35	0x3ef53efe	0.47899622
36	0x3de6df08	0.112730086
37	0xbe0517af	-0.12997316
38	0x3d77ee27	0.060529854
39	0x3ef9072b	0.4863828
40	0xbed7d958	-0.42158008
41	0x3eac41c6	0.3364393
42	0x3f2252d1	0.6340762
43	0x3e74c282	0.23902324
44	0x3ecb959b	0.39762577
45	0xbe9ca686	-0.30595797
46	0x3ef25dd9	0.47337225
47	0x3ef0390f	0.46918532
48	0x3f32faa7	0.69913715
49	0x3ed57f4f	0.4169869
50	0x3e2cfd9c	0.1689362
51	0xbf358467	-0.70905155
52	0xbeb7db53	-0.3590952
53	0x3e8f92ea	0.28041774
54	0xbe07152b	-0.13191669
55	0x3e03755a	0.12837735
56	0x3dab425b	0.08362266
57	0x3e05b61b	0.13057749
58	0xbc348bb3	-0.011019635
59	0xbf4e4480	-0.8057327
60	0xbf33b905	-0.7020419
61	0xbea4cc15	-0.32186952
62	0x3e45f171	0.19330384
63	0x3e63b67f	0.22237585
64	0xbe334d95	-0.17510064
65	0x3f518f61	0.81859404
66	0x3f222a0f	0.63345426
67	0xbe8d7684	-0.27629483
68	0x3ee4e611	0.44706777
69	0x3f24779b	0.64245003
70	0x3e4bff57	0.19921623
71	0xbe9d2cb0	-0.30698156
72	0xbeb28a9f	-0.34871385
73	0xbf0872c4	-0.5330012
74	0xbf31f31c	-0.6951158
75	0x3eecf4ff	0.46280667
76	0xbf0ca936	-0.54945695
77	0x3e61d584	0.22054106
78	0xbed7e0ed	-0.42163792
79	0x3ef6e225	0.4821941
80	0x3ee9bb83	0.45650873
81	0x3ed79c62	0.42111498
82	0xbd88f4be	-0.06687306
83	0xbe60f4d5	-0.21968396
84	0x3e41d4a7	0.18928777
85	0xbd0e7612	-0.03478057
86	0x3eb54043	0.3540059
87	0xbefbb2d0	-0.4915986
88	0x3e17aee8	0.14812815
89	0x3e213ae3	0.1574512
90	0x3ea8fb56	0.33004254
91	0x3e7b8087	0.24560748
92	0x3f2735e0	0.6531658
93	0x3eb0e90b	0.34552798
94	0xbd17bb5b	-0.03704391
95	0x3ec7d6ba	0.3903101
96	0xbf75b42e	-0.9597806
97	0x3e488cc7	0.19584952
98	0xbe7c0faa	-0.2461535
99	0x3edb8a8e	0.42879146
100	0x3f02f57e	0.5115584
101	0xbe451f57	-0.19250236
102	0x3e36aab4	0.17838556
103	0x3c49d4be	0.012318788
104	0xbf31df22	-0.694811
105	0xbec74d30	-0.38926077
106	0x3f1ec6ae	0.6202191
107	0x3eea38c0	0.45746422
108	0xbed7d23e	-0.4215259
109	0x3f9eb980	1.240036
110	0xbed7864b	-0.42094645
111	0xbed78a2a	-0.42097598
112	0xbd8e0746	-0.06934981
113	0xbed7d70e	-0.4215626
114	0x3da7f525	0.082010545
115	0xbed7e325	-0.42165485
116	0x3f0268f3	0.5094139
117	0xbdaa37e0	-0.083114386
118	0xbe08d904	-0.13364035
119	0xbf1d1b96	-0.6137022
120	0x3ec6eb88	0.3885157
121	0x3f13b312	0.57695115
122	0x3eb991e1	0.3624411
123	0x3ebca98d	0.36848107
124	0x3e3d23e9	0.1847073
125	0xbdda38cd	-0.10655365
126	0x3ef13247	0.4710867
127	0x3ee08ab9	0.43855837
128	0x3f5b8a8f	0.857583
129	0xbed82b31	-0.42220452
130	0x3dc53e3e	0.096310124
131	0x3e49da71	0.19712235
132	0xbed7c1ee	-0.42140144
133	0x3e4e293d	0.20132919
134	0x3e3d0978	0.18460643
135	0x3e2d5a51	0.16928984
136	0x3dc48d0d	0.09597216
137	0xbee35b9a	-0.44405824
138	0xbd04bb78	-0.032405347
139	0xbf3fabbb	-0.74871415
140	0xbf845f0e	-1.0341508
141	0xbeabd3d4	-0.3356005
142	0x3e32913c	0.17438215
143	0x3e794be2	0.24345353
144	0x3fa80d2b	1.3129019
145	0xbeb1600b	-0.34643587
146	0xbdb28ca1	-0.08718229
147	0x3de1a83a	0.11018415
148	0x3ee42822	0.4456187
149	0xbd1506a6	-0.036383294
150	0x3ee3d36b	0.44497237
151	0x3edb7991	0.42866185
152	0xbe78103b	-0.24224941
153	0xbed7e426	-0.4216625
154	0x3ddcb712	0.107771054
155	0x3f63cdce	0.8898591
156	0x3e8e54a9	0.27798966
157	0x3efaa94a	0.48957282
158	0x3f80ec21	1.0072061
159	0x3da1d57f	0.07902049
160	0xbe1211ac	-0.14264554
161	0xbed7ee21	-0.42173865
162	0xbed7d4eb	-0.4215463
163	0xbed5b449	-0.4173911
164	0x3eb71127	0.35755274
165	0x3dec460c	0.11536798
166	0x3e3b5769	0.18295063
167	0x3e99bac1	0.30025294
168	0x3e6ddaa6	0.23227939
169	0xbef6c2d1	-0.48195508
170	0xbee7c46c	-0.45267045
171	0xbed82b6f	-0.42220637
172	0xbed7b8c5	-0.42133155
173	0x3dca2e61	0.09872127
174	0x3f03f294	0.5154202
175	0x3ea63364	0.32461083
176	0x3f119e0d	0.5688179
177	0x3eadc375	0.33938184
178	0xbe6a3c6c	-0.22874612
179	0x3e639568	0.22224963
180	0x3dba2986	0.09089951
181	0xbe777fc5	-0.24169834
182	0xbe1437b9	-0.14474382
183	0xbdd34d2c	-0.10317454
184	0x3de76093	0.11297717
185	0x3e506b16	0.2035335
186	0xbf21c342	-0.63188565
187	0x3eebe790	0.46075106
188	0xbf69e0ed	-0.91358835
189	0x3e2f4927	0.17117749
190	0x3e12fcd5	0.1435426
191	0xbd1184f9	-0.035527203
192	0xbe7d5ba2	-0.24741986
193	0x3ebe69b8	0.37190032
194	0xbede0ca3	-0.43369016
195	0x3eabad2a	0.3353055
196	0x3dd5800e	0.10424815
197	0x3f7f869c	0.9981477
198	0x3eb76d5a	0.35825616
199	0xbe84e1ea	-0.2595361
200	0xbe8d944d	-0.27652207
201	0x3d20412e	0.03912466
202	0x3e50230b	0.20325868
203	0xbcee865a	-0.029116798
204	0xbee1a6b3	-0.44072494
205	0x3e323ac3	0.17405228
206	0x3e41b96a	0.18918386
207	0x3eac8769	0.3369706
208	0x3f0ebe3d	0.5575903
209	0x3eaa51de	0.33265585
210	0x3e6f9ea3	0.23400359
211	0x3ef22b0f	0.47298476
212	0x3e400e0f	0.18755363
213	0x3f247b98	0.6425109
214	0x3df39e94	0.11895481
215	0x3d85770a	0.065168455
216	0x3e8dfc4e	0.27731556
217	0xbe9414ca	-0.2892211
218	0xbe5f2946	-0.21793088
219	0xbe2436a0	-0.16036463
220	0x3f213d2b	0.6298396
221	0xbdc16a64	-0.094441205
222	0xbe7d41c8	-0.24732125
223	0xbdb16267	-0.08661347
224	0xbf1efceb	-0.6210467
225	0x3e8b4466	0.2720062
226	0xbe01954a	-0.12654606
227	0x3f3b3b34	0.7313721
228	0xbd4625ec	-0.04837601
229	0x3e15e833	0.14639358
230	0xbe69d017	-0.22833286
231	0x3eb17117	0.34656593
232	0x3e9fe303	0.31227884
233	0x3f0e0924	0.554827
234	0x3eb373a5	0.35049167
235	0x3f0f77bc	0.56042075
236	0xbd8aa056	-0.06768863
237	0x3e8c45b9	0.27396944
238	0xbcd5a997	-0.026081843
239	0x3c34587b	0.0110074235
240	0xbf2b34f8	-0.668777
241	0xbeff2d94	-0.4983946
242	0xbe915f85	-0.28393188
243	0xbef1d465	-0.47232357
244	0x3f2be262	0.6714231
245	0x3dd13a05	0.102161445
246	0xbd5460e7	-0.051850226
247	0x3e910fdb	0.2833241
248	0xbead079a	-0.33794862
249	0xbef5dccf	-0.48020026
250	0x3f242a82	0.6412736
251	0xbeedbfff	-0.46435544
252	0x3f227ca2	0.63471425
253	0x3f333925	0.7000907
254	0xbe4ecea6	-0.20196018
255	0x3f28fce3	0.66010875

fc1.bias f4 [16]
0	0x3ed56177	0.41675922
1	0x3f010ab1	0.5040694
2	0x3ee849d1	0.45368817
3	0x3f0298f1	0.5101462
4	0x3f1f48e4	0.622206
5	0x3f56c85e	0.83899486
6	0x3f17282b	0.59045666
7	0x3f3dc8eb	0.741347
8	0x3f3d6e61	0.7399655
9	0x3f8b1c76	1.086806
10	0x3f5026f6	0.8130945
11	0x3f71ed85	0.9450305
12	0x3f0ee508	0.55818224
13	0x3f6633e1	0.8992291
14	0x3f262266	0.6489624
15	0x3eeac35f	0.4585218

fc2.weight f4 [16, 16]
0	0x3e1ee172	0.15515688
1	0x3ecf9158	0.40540576
2	0xbb89a43a	-0.0042004855
3	0x3f9a198c	1.2039046
4	0xbecde38b	-0.40212664
5	0x3f8f7065	1.1206175
6	0xbe1c7693	-0.15279607
7	0x3f7f0102	0.9961091
8	0xbeef1d70	-0.46702147
9	0x3fbdee90	1.4838428
10	0xbeeb74a8	-0.4598744
11	0xbf6695df	-0.90072435
12	0x3f9b23c6	1.2120292
13	0xbd98d72c	-0.07462916
14	0xbf2fb4c3	-0.68635195
15	0x3f8381a3	1.0273937
16	0x3f830008	1.0234385
17	0xbef1c7dc	-0.47222793
18	0xbecda2d0	-0.4016328
19	0x3fbe3402	1.4859622
20	0xbe61f8c7	-0.22067557
21	0x3fc574d2	1.5426276
22	0xbe86faf6	-0.26363343
23	0x3dabd615	0.08390442
24	0x3f286eb2	0.6579391
25	0xbe8eee0e	-0.27915996
26	0xbebf3b29	-0.37349823
27	0x3f078ca8	0.52949
28	0x3f13fe6c	0.5781009
29	0xbf5e0136	-0.867206
30	0xbdecf9e3	-0.115710996
31	0x3f81e342	1.0147479
32	0xbf0f8992	-0.5606929
33	0xbebcc8c2	-0.36871916
34	0xbf192c8a	-0.59833586
35	0xbe9c8cf9	-0.30576304
36	0xbe0c4733	-0.13699035
37	0x3f15f9ab	0.5858409
38	0xbf07d243	-0.5305521
39	0x3fb7c6e1	1.4357568
40	0x3f827ca4	1.0194287
41	0x3f2cf835	0.67566234
42	0x3f5199f4	0.8187554
43	0xbc0d04e7	-0.008607126
44	0x3f442a70	0.76627254
45	0xbdec2e35	-0.11532251
46	0xbf2d5987	-0.6771473
47	0x3eafaa6d	0.34309712
48	0x3fb31f48	1.3993921
49	0x3fca130d	1.5787064
50	0x3e625412	0.22102383
51	0x3f6b5627	0.91928333
52	0x3f137286	0.57596624
53	0x3f032d71	0.51241213
54	0xbf90b4c2	-1.1305163
55	0xbf94c699	-1.1623107
56	0x3e987d15	0.2978293
57	0x3e0e5b15	0.13901933
58	0x3f05f7d9	0.5233131
59	0x3f53db8c	0.82756877
60	0x3ed4d64d	0.4156975
61	0xbf127930	-0.5721617
62	0xbe0cc0b2	-0.13745382
63	0x3f2f2751	0.6841937
64	0x3efd14b2	0.49429852
65	0xbf0ce4cf	-0.55036634
66	0xbdd81a87	-0.10551935
67	0x3f2cd678	0.67514753
68	0x3f83dfde	1.0302694
69	0xbeaa988d	-0.33319512
70	0xbe8ed7e4	-0.27899086
71	0x3ead2a70	0.3382144
72	0x3faa7caa	1.3319294
73	0x3ee788ee	0.45221657
74	0xbe1a745a	-0.15083447
75	0xbdbd33be	-0.09238385
76	0xbf280ba9	-0.6564279
77	0x3f974880	1.1819
78	0x3fb3d3f6	1.404906
79	0xbed3ccef	-0.4136729
80	0x3f75b87f	0.95984644
81	0x3f5b1f21	0.85594374
82	0x3fd338ed	1.6501747
83	0xbef8dcd9	-0.48605993
84	0x3f99bc80	1.2010651
85	0xbf528645	-0.8223613
86	0x40014dc8	2.0203724
87	0x3f815075	1.0102679
88	0xbe8685ae	-0.26273865
89	0xbf2f6781	-0.6851731
90	0xbf687fe8	-0.9082017
91	0x3e8165ed	0.25273076
92	0x3f8ebc2c	1.1151175
93	0x3f3dff48	0.74217653
94	0xbe074ccc	-0.1321289
95	0x3daa5b26	0.083181664
96	0x3e87a94b	0.26496348
97	0x3fadd11c	1.357944
98	0x3f5f9331	0.8733397
99	0x3eb52909	0.3538287
100	0x3f55d845	0.83533126
101	0x3f5c4cc8	0.8605466
102	0x3f7c9776	0.9866861
103	0xbf4df6ca	-0.80454695
104	0x3d42750f	0.047474917
105	0x3f815161	1.010296
106	0x3fdf9ca5	1.7469679
107	0x3f81b726	1.0134017
108	0xbf1a8868	-0.6036439
109	0xbf218bbb	-0.63103837
110	0xbe9b9648	-0.30388093
111	0xbf486526	-0.7827934
112	0x3f921f5b	1.1415819
113	0x3daf10ad	0.085481025
114	0xbfb3cb2d	-1.4046379
115	0xbee5bf16	-0.4487235
116	0x3e023d9e	0.12718818
117	0x3efe0133	0.4961029
118	0x3f8a91de	1.0825765
119	0xbefd7f84	-0.4951135
120	0x3fd98294	1.6992974
121	0x3f77cbaf	0.9679517
122	0xbf743ea7	-0.954081
123	0x3fb6f70d	1.4294144
124	0x3ee889d0	0.45417643
125	0x3ed13b0a	0.40865356
126	0x3f102b5e	0.56316173
127	0xbf806533	-1.0030884
128	0xbf8a89d3	-1.0823311
129	0x3fb72e68	1.4311037
130	0xbf116a98	-0.56803274
131	0x3f8551bd	1.041557
132	0xbf2901e5	-0.66018516
133	0xbebfc537	-0.3745515
134	0xbf988285	-1.1914831
135	0x3f53989c	0.8265474
136	0x3e51fa4a	0.20505634
137	0x3f042836	0.5162386
138	0x3fc45470	1.5338268
139	0x3fb1f054	1.3901467
140	0xbe161c70	-0.14659286
141	0x3f9bb066	1.2163208
142	0x3f2a8cff	0.6662139
143	0xbf0047be	-0.5010947
144	0xbdc6a445	-0.09699301
145	0x3fcef4e2	1.6168482
146	0xbe986e05	-0.29771438
147	0x3efe2472	0.4963718
148	0x3d720956	0.059090935
149	0xbf8b6504	-1.0890203
150	0x3e8fe41f	0.2810373
151	0x3fabaaa2	1.3411448
152	0x3f273df6	0.6532892
153	0x3e8541eb	0.26026854
154	0x3f7fc9fa	0.99917567
155	0xbda3454a	-0.079722
156	0x3e5d0b5c	0.21586365
157	0xbe3035ad	-0.17207976
158	0x3e8d8db3	0.2764717
159	0xbf503d8b	-0.8134391
160	0xbf884738	-1.0646734
161	0x3ed7a721	0.42119697
162	0xbf12949d	-0.57258016
163	0xbf195a96	-0.5990385
164	0xbf8a35e8	-1.0797701
165	0x3eff5748	0.49871278
166	0xbf781946	-0.96913564
167	0x3f3403f8	0.70318556
168	0x3e929d56	0.28635663
169	0x3fb122d6	1.3838756
170	0x3f706234	0.93899846
171	0x3f8e2ed3	1.110804
172	0x3f61f419	0.8826309
173	0x3f7466d2	0.9546939
174	0x3e820973	0.25397834
175	0xbf226d12	-0.6344768
176	0xbec2d090	-0.38049746
177	0xbf95b0e1	-1.1694604
178	0x3de85889	0.11345012
179	0xbf8d90d8	-1.1059828
180	0xbdbb8dd6	-0.091579124
181	0xbe2f098c	-0.17093486
182	0xbea2bca3	-0.31784543
183	0x3dcd288a	0.10017498
184	0x3d3bc0fc	0.04583834
185	0x3fa235df	1.267269
186	0xbf639b2d	-0.88908654
187	0x3f7804d7	0.96882385
188	0x3fab0d25	1.3363386
189	0x3fd98dc6	1.6996391
190	0xbf420f78	-0.75804853
191	0x3f95c895	1.1701838
192	0xbf4b0258	-0.7930045
193	0xbf9d8f84	-1.2309422
194	0x3f3d55b5	0.73958904
195	0x3eab7b89	0.33492687
196	0x3f8fe0e3	1.1240505
197	0x3fb4e42a	1.413213
198	0xbdb76063	-0.08953931
199	0x3e3fd185	0.18732269
200	0xbef44ecf	-0.47716376
201	0x3e60271b	0.21889918
202	0x3fa4a1b2	1.2861845
203	0x3b27b01c	0.0025587147
204	0xbf2b67c0	-0.66955185
205	0x3f146a87	0.5797505
206	0xbe2e7816	-0.17037997
207	0x3f9378d4	1.1521249
208	0xbe5aa5c1	-0.21352293
209	0xbef522f9	-0.47878245
210	0xbe7696e4	-0.24080998
211	0x3faf87cb	1.3713316
212	0xbfaab8df	-1.3337668
213	0x3f4c5f06	0.79832494
214	0x3f824e10	1.0180073
215	0x3eb60438	0.35550094
216	0x3f0a11e2	0.53933537
217	0xbf3bc9bf	-0.73354715
218	0xbe64a079	-0.2232684
219	0x3f85f520	1.0465431
220	0x3f39fee7	0.72654575
221	0x3f13c405	0.5772098
222	0x3fac8636	1.3478458
223	0x3f3ecb7b	0.74529237
224	0x3f1d1dd6	0.6137365
225	0x3e116261	0.14197685
226	0x3e60a217	0.21936832
227	0x3eb66e74	0.35631144
228	0x3f9a663a	1.2062447
229	0x3e9fac8d	0.31186333
230	0x3efac729	0.48980072
231	0x3fa135a7	1.2594498
232	0x3f825ff9	1.0185539
233	0xbf1407d7	-0.5782446
234	0x3e8d2dda	0.27574044
235	0xbf861586	-1.0475318
236	0x3f4c73f8	0.79864454
237	0xbea74ff6	-0.32678193
238	0xbf8727af	-1.0558985
239	0x3fa67518	1.3004484
240	0x3f9eb957	1.2400311
241	0xbe889a77	-0.26680347
242	0xbd8cff68	-0.068846524
243	0x3e9ab4e6	0.3021614
244	0x3f2993eb	0.6624133
245	0x3ef4a378	0.47780967
246	0xbeea4aee	-0.45760292
247	0x3f377a8d	0.7167137
248	0x3fbd7edf	1.4804343
249	0x3ee230fd	0.44178
250	0xbedb5671	-0.42839387
251	0xbeaf35f4	-0.3422085
252	0xbf2ac7bc	-0.6671102
253	0xbdb4ec73	-0.088341616
254	0x3fc1ef36	1.5151126
255	0xbf01f691	-0.50766855

fc2.bias f4 [16]
0	0xbe35384b	-0.17697255
1	0x3e7e0f28	0.24810469
2	0x3eb782c7	0.35841963
3	0xbe8ce3b1	-0.27517465
4	0x3e032376	0.12806496
5	0x3e89c48d	0.2690777
6	0x3f313ea3	0.692362
7	0x3ef7dca2	0.48410517
8	0x3f113794	0.5672543
9	0xbdaec59a	-0.08533783
10	0x3f0ebd86	0.5575794
11	0x3f3de3dc	0.7417581
12	0x3f3c2cba	0.7350575
13	0xbdda1b1e	-0.106497034
14	0xbc107cc1	-0.008818806
15	0x3ebd1404	0.36929333

fc3.weight f4 [80, 16]
0	0xbdf7d7e0	-0.12101722
1	0x3e9dd28f	0.30824706
2	0x3e84e945	0.2595922
3	0x3ec23819	0.37933424
4	0xbdf2b11c	-0.11850187
5	0xbfeaf45c	-1.8355823
6	0xbcf777a1	-0.03020841
7	0xbdc792d1	-0.097448
8	0xbe8bd66e	-0.27312034
9	0xbf954978	-1.1663046
10	0xbf1fad14	-0.6237347
11	0xbf3a0734	-0.7266724
12	0x3ee609bd	0.44929305
13	0xbec1466b	-0.37749037
14	0x3d8a565c	0.06754753
15	0x3e5d036a	0.21583334
16	0xc00eb2b6	-2.2296576
17	0xbfebfbaa	-1.8436177
18	0xbd52bd76	-0.051450215
19	0x3e3d3067	0.18475495
20	0xbe528fa4	-0.20562607
21	0xbffbd357	-1.9673871
22	0x3eedd1bf	0.46449086
23	0x3e6ba4eb	0.2301213
24	0x3eea9bbb	0.45821938
25	0x3efe16d1	0.49626783
26	0x3efb65a6	0.4910099
27	0xbecc000d	-0.3984379
28	0x3e7f7816	0.24948153
29	0xbf8e8990	-1.1135731
30	0xbfe574e8	-1.7926302
31	0x3eabd506	0.3356096
32	0xbe15c51f	-0.14625977
33	0xc005d67d	-2.0912163
34	0xbf19e16a	-0.6010958
35	0x3dca0b83	0.09865477
36	0x3e9b2cd1	0.3030763
37	0x3e94ffb5	0.2910134
38	0xbf2d51ea	-0.67703116
39	0xbe7f88b6	-0.24954495
40	0xbf0a9fdb	-0.5415017
41	0xbe820415	-0.2539374
42	0xbf6e4a73	-0.9308235
43	0x3df5a0fe	0.119935974
44	0xbe273ea7	-0.16332494
45	0xbfacdfe5	-1.3505827
46	0xbe860135	-0.26172796
47	0x3ec9cb59	0.39412954
48	0xbe1c2482	-0.15248302
49	0xbe8d421b	-0.27589497
50	0x3e38d2a6	0.18049106
51	0xbedf1d90	-0.43577242
52	0x3e0eac9a	0.1393303
53	0xbecc5035	-0.39904943
54	0xbf0a671f	-0.540636
55	0xbfa57744	-1.2927022
56	0x3e89987a	0.26874143
57	0x3e66a9e4	0.22525746
58	0xbe371d40	-0.17882252
59	0xbfaf1a54	-1.367991
60	0x3d2a0349	0.04150704
61	0x3dea56e3	0.114423536
62	0xbd844802	-0.06459047
63	0x3e819d57	0.25315353
64	0xbe88cd68	-0.26719213
65	0xbe5e4e2a	-0.21709505
66	0x3efa7054	0.48913825
67	0xbf7e0431	-0.99225146
68	0xbe6e3329	-0.23261704
69	0xbf5cfa17	-0.86319107
70	0xbf930817	-1.1486844
71	0xbcbdb8e0	-0.023159444
72	0x3e7b6ed6	0.24554
73	0xbfa9d11a	-1.3266938
74	0x3f11016f	0.5664281
75	0x3f031323	0.51201075
76	0x3ea46b16	0.3211295
77	0x3ec74653	0.3892084
78	0xbf37a02c	-0.7172878
79	0xbe1b882f	-0.15188669
80	0x3f212d24	0.62959504
81	0x3dac2880	0.08406162
82	0x3ec255d4	0.37956107
83	0xbf96a337	-1.1768559
84	0xc03090cd	-2.758838
85	0xbf4e5535	-0.80598766
86	0xbeeaaffb	-0.45837387
87	0x3e9abf2a	0.30223972
88	0xbee8ea23	-0.45491132
89	0xc0922efa	-4.5682344
90	0x3e6f610c	0.23376864
91	0x3f07f81d	0.53112966
92	0x3de64828	0.112442315
93	0x3e0c7b4c	0.13718909
94	0xbe48c3ab	-0.19605891
95	0xbfa90c4b	-1.3206877
96	0xbfece071	-1.8505994
97	0xbff88cf6	-1.9418018
98	0xbf9e560c	-1.237001
99	0x3da0c1a8	0.07849437
100	0x3ee01146	0.4376318
101	0x3ea05d58	0.31321216
102	0xbe543f64	-0.20727307
103	0x3eb27507	0.3485491
104	0x3e0c6762	0.13711312
105	0x3d1dd765	0.038535494
106	0xbf8ef403	-1.1168216
107	0xbf83fcf3	-1.0311569
108	0xbf99ab90	-1.2005482
109	0x3e8f126c	0.27943742
110	0xbf995c2b	-1.1981252
111	0x3e5731fe	0.21015164
112	0xc00180a2	-2.0234761
113	0xbd8f7e8c	-0.07006559
114	0xbd1f4ded	-0.038892675
115	0xbea56544	-0.32303822
116	0x3e33f24a	0.17572895
117	0xbfa506b1	-1.2892667
118	0x3e5e86fe	0.21731183
119	0x3f601e51	0.8754626
120	0x3a8744b9	0.0010320164
121	0xc03852b0	-2.8800468
122	0x3e33aa24	0.17545372
123	0xbe34ad87	-0.1764432
124	0x3f05d6fc	0.52281165
125	0x3de0c4bb	0.10975023
126	0xc0049768	-2.071741
127	0x3f04a5e0	0.51815605
128	0xbeae514a	-0.34046394
129	0xbed54bee	-0.41659492
130	0xbd7a888b	-0.061165374
131	0xbf53e88f	-0.8277673
132	0x3f047d65	0.51753837
133	0xbd1058cd	-0.035240937
134	0xbfc9782d	-1.57398
135	0x3e9fa97b	0.3118399
136	0xbfc7d0fc	-1.5610652
137	0xbf2ff5d0	-0.68734455
138	0xbf236557	-0.6382651
139	0x3eafec14	0.343598
140	0xbe7c9e04	-0.24669653
141	0xbe0be2ce	-0.13660738
142	0xbdd5f665	-0.10447387
143	0x3f071ebb	0.52781266
144	0x3de9e29c	0.114201754
145	0x3e27cde4	0.16387135
146	0x3e6c0945	0.23050411
147	0xbf244896	-0.6417326
148	0xbdafa20e	-0.08575831
149	0xbf836804	-1.0266118
150	0xbff61da3	-1.9227794
151	0xbdad1b67	-0.08452492
152	0x3deb28b6	0.11482374
153	0x3f1f7d44	0.62300515
154	0xbdc46a04	-0.095905334
155	0xbe04fd99	-0.12987365
156	0xbed4c172	-0.41553837
157	0x3ebbcd28	0.3667996
158	0x3d1b06ca	0.03784827
159	0x3e09f858	0.13473642
160	0xbfeb0aa6	-1.8362625
161	0xc01ad4f7	-2.4192483
162	0xbf5de93a	-0.86684
163	0xbfe9e6e8	-1.8273592
164	0x3e1a1218	0.15045965
165	0x3ebe6630	0.37187338
166	0xbefea809	-0.49737576
167	0x3a2fffda	0.0006713845
168	0xbeb3af93	-0.3509489
169	0xc02556a6	-2.5834136
170	0xbf10c50a	-0.5655066
171	0x3f278fa2	0.6545354
172	0x3f31f850	0.6951952
173	0x3e15b1e4	0.14618641
174	0xbc6fc55c	-0.0146344565
175	0xbf0fa8f8	-0.561172
176	0xbeeb79ed	-0.4599146
177	0xbf387ac8	-0.7206235
178	0xbf1b25d2	-0.60604584
179	0x3d9210f9	0.071321435
180	0xbe842e15	-0.25816408
181	0xbdaa4ba1	-0.08315206
182	0x3ece65e2	0.40312105
183	0xbf4227d5	-0.7584203
184	0xbf9839aa	-1.1892598
185	0xbf68b1e3	-0.90896434
186	0xbef40135	-0.4765717
187	0xbf6bddbd	-0.9213522
188	0x3eb382c1	0.35060695
189	0xbfac640d	-1.3468033
190	0xbe059ec3	-0.13048844
191	0x3ef447a0	0.47710896
192	0xbc81097b	-0.015751591
193	0xbf10bed4	-0.5654118
194	0xbf3f194d	-0.7464798
195	0xc0070a2f	-2.1099966
196	0xbffdc892	-1.9826834
197	0x3e93fec4	0.28905308
198	0x3e321764	0.17391735
199	0xbf627c35	-0.88470775
200	0xbef0a4cd	-0.47000733
201	0xc02643c9	-2.5978873
202	0xbebdf37d	-0.3709983
203	0xbe89eff3	-0.2694088
204	0x3ef831b9	0.48475435
205	0x3ea32962	0.3186751
206	0xbc9a8ed4	-0.018866934
207	0xbf270ac9	-0.6525083
208	0xbf9c20b5	-1.2197481
209	0xbd616f75	-0.055037934
210	0xbed5a4c1	-0.4172726
211	0x3e8146e8	0.2524941
212	0xbfcd0a93	-1.6018852
213	0x3e7aa54c	0.24477118
214	0x3d30e015	0.04318245
215	0x3d9eb5db	0.0774953
216	0xbf5d6c51	-0.864934
217	0xbfbc5380	-1.4712982
218	0xbef8e5d7	-0.48612854
219	0xbf441ab2	-0.76603234
220	0xbd645075	-0.055740792
221	0xbd6df890	-0.058098376
222	0x3de89fff	0.11358642
223	0xbf3b356c	-0.7312839
224	0x3e7ac73d	0.24490066
225	0x3e93a2ca	0.28835136
226	0xbec27377	-0.37978718
227	0xbfecbf42	-1.8495867
228	0xbe5f5680	-0.21810341
229	0xbebbd3aa	-0.36684924
230	0xbdaa0606	-0.0830193
231	0xbeb24733	-0.34819946
232	0xbdd13a56	-0.10216205
233	0xbf7ee5f9	-0.9956966
234	0xbee38475	-0.44436994
235	0xbfac2e11	-1.3451558
236	0x3ed44864	0.4146148
237	0x3ec36e64	0.3817016
238	0xbe670948	-0.22562134
239	0xbbf13278	-0.0073607527
240	0xbd8000f7	-0.06250184
241	0xbef65b7e	-0.48116678
242	0xbf813095	-1.0092951
243	0x3dfe269f	0.1240971
244	0xbeaf77ad	-0.34270993
245	0x3e170e1b	0.14751475
246	0xbede1cd7	-0.43381378
247	0x3d9faee8	0.077970326
248	0xbf5b7990	-0.85732365
249	0xbe9cc98c	-0.30622518
250	0xbef316de	-0.47478384
251	0xbf96b01d	-1.1772496
252	0xbf4f77f7	-0.81042427
253	0xbe8e6127	-0.27808496
254	0x3e9f2895	0.3108565
255	0xbe991c54	-0.29904425

fc3.bias f4 [80]
0	0x3c8c7a7a	0.017148245
1	0x3e752a7f	0.23941992
2	0xbdf38846	-0.118912265
3	0xbe8d9a3a	-0.27656728
4	0x3d7d7697	0.061880674
5	0x3d23ded7	0.04000744
6	0x3e85abd3	0.26107654
7	0x3ca3d34a	0.019998211
8	0xbdc8f42b	-0.09812196
9	0xbe99d4cc	-0.30045164
10	0x3e7aea17	0.2450336
11	0xbd3aa5e2	-0.045568354
12	0x3e97c54e	0.2964272
13	0x3ce64d15	0.028112927
14	0x3d02e7e9	0.031959448
15	0x3d5eefcc	0.054427907
16	0xbe70962a	-0.23494783
17	0xbe271442	-0.16316321
18	0x3cdf345d	0.027246648
19	0x3b86214c	0.0040933248
20	0xbe0c5a72	-0.13706377
21	0xbea0722c	-0.31337106
22	0xbc08346c	-0.00831328
23	0x3ccbfd9b	0.024901202
24	0x3e15ef32	0.14642027
25	0xbe9458da	-0.28974038
26	0xbd86040a	-0.06543739
27	0xbe38f84e	-0.1806347
28	0xbe173067	-0.14764558
29	0x3d853eec	0.06506142
30	0x3e8358c2	0.25653654
31	0xbe0a93e5	-0.1353298
32	0xbe020ff4	-0.12701398
33	0xbcf4652f	-0.029833404
34	0xbe2d9770	-0.169523
35	0xbd6e3bd4	-0.058162525
36	0xbdf60e9c	-0.12014505
37	0x3de89239	0.11356015
38	0x3e3cdbe2	0.18443254
39	0xbdcba7b2	-0.09944095
40	0xbd3fa160	-0.04678476
41	0x3e6d52b6	0.23176083
42	0xbe87d3e9	-0.26528862
43	0x3e55c569	0.20876087
44	0x3dfc87f6	0.1233062
45	0x3e2f7b08	0.17136776
46	0xbe8bb347	-0.27285215
47	0x3df2601d	0.118347384
48	0x3db46395	0.08808056
49	0x3e86035f	0.26174447
50	0xbe0fe7e9	-0.1405331
51	0xbe43a853	-0.1910718
52	0xbd12d94b	-0.035851758
53	0x3e78bd4b	0.2429096
54	0xbe07e6f3	-0.13271694
55	0xbd595c07	-0.05306628
56	0xbe8d5ebe	-0.27611345
57	0xbdfb5764	-0.12272528
58	0xbc399363	-0.011326644
59	0xbe0b9123	-0.13629584
60	0x3f032245	0.51224166
61	0x3da04c0a	0.07827003
62	0xbe4e5542	-0.20149711
63	0x3d28d7f0	0.04122156
64	0xbe21fb5d	-0.15818544
65	0xbe0af7ad	-0.13571043
66	0x3e231b06	0.15928277
67	0x3cd73ba2	0.026273552
68	0x3e0538ab	0.13009898
69	0xbeb1bf80	-0.34716415
70	0x3d8aeb63	0.06783178
71	0x3dcae9db	0.09907886
72	0x39194d46	0.00014620004
73	0xbebab291	-0.3646436
74	0xbce8c235	-0.028412918
75	0xbe4cc036	-0.19995198
76	0xbdb1fa47	-0.08690315
77	0xbd1882ed	-0.037234236
78	0xbe13aa39	-0.14420404
79	0xbd02997a	-0.031884648
