basic_bot/model/personal_assistant.pth (torch, 26806 bytes, 6 tensors)

fc1.weight f4 [16, 233]
00000000: ac88 0ebe 203e 6a3f f0a1 0c3e 8871 873e
00000010: f08d 803e 0959 003f 125e 303b 8859 173f
00000020: b120 7f3e e712 43bf 819f 8f3e dfe5 71be
00000030: c5bd d73e e6ae c6be 6ed6 cd3e 141c 34be
00000040: 989f 2dbf b4e4 a13e 62e4 3c3f 1388 84be
00000050: ebec 773e e635 9d3e c67d 90bc a9b3 99be
00000060: 304b 273f 4c66 6a3f 74dd abbe 283f cabe
00000070: 9bf5 5ebe d3b6 64be 6298 0d3f 5c7e 8bbe
00000080: d419 17be cb0b a43e 880c 91be 2757 013f
00000090: a618 bb3e 0759 133f 9050 da3e 23c4 f33e
000000a0: bc45 98bd f031 2bbf 158a 0bbf f398 29bf
000000b0: a0cd 3ebe 06dd 973d 4568 203b 863a a0bc
000000c0: ceb4 b5be 7772 66be 5022 c8bd 676c 00bf
000000d0: c600 0a3f 8786 163f e8b9 a5be f072 fcbe
000000e0: 08fd fbbd dc6e 093f 14c9 493f 85e4 fa3e
000000f0: a0f0 16bf 809c 873e 7d05 36be a805 8c3e
00000100: 647d 053f 5d16 363e dc53 9cbe e913 1cbe
00000110: 2046 df3e 8d4b 42be a832 fbbe 86af a2bd
00000120: 1960 d53d fb19 35be e692 7bbe 7f22 89be
00000130: 1528 083f 2e3b d1be a2ee 38bf af0e 0b3f
00000140: f13d 5e3e 9892 d5bd 24a9 d93e 9320 873e
00000150: 27e0 293f 389f b03e 5731 5b3f d8f6 9ebe
00000160: e994 c6be 7e38 e33e 148f d3be a2cf d33d
00000170: d758 d23e 43ba b43e 180b 6e3f 7320 063f
00000180: fd01 193d a6a5 1c3f b358 d9be f7f0 19bf
00000190: 53ae 573e 6b7a 2d3f 9e75 8bbe a1ed b8be
000001a0: 0ccf 4ebe e5bd 87be e7df 933d 3bed c13e
000001b0: 6724 b0bd 8a3b 5a3f f06e 7d3d 82b9 a83e
000001c0: 4856 a9be 72e2 af3d 01fb 92bd 450d cabe
000001d0: e129 9b3d 9b18 053e cf55 11bf d09c 48be
000001e0: f275 753d 36c0 4b3e 609b e3be 5975 13bf
000001f0: e6ab c63e 0024 8a3e c19a 4d3f 690d 3b3f
00000200: a9be 93bd 0434 e73e 845d 193e 887a 9cbb
00000210: dedf 1cbf 6dba 653b 9faa 103f 8106 2e3e
00000220: 111e ff3e 498c 64be 8f3f 243f dabc 3a3f
00000230: b305 90bd 206b 3bbe 311d ca3e 395a a6be
00000240: 8a33 0d3e 81dc 85be befd aabe d2ca a2be
00000250: e841 0fbf 9cd7 cdbe f2f9 d53d f125 933e
00000260: 3922 d63e 921d b23e e0b0 9cbe 9346 8abe
00000270: faca 43bf 0608 183f df6d b5be d601 06bf
00000280: 01a0 8abe 87c9 45bf 5983 2b3f 2389 cdbe
00000290: 5024 013f 926b 933e 1ba5 8abe d912 bc3e
000002a0: 0dbf 46ba d16a 39bf 7a7c eb3e eb77 073e
000002b0: 8919 233f c746 253f 1e76 21bf dd67 32bf
000002c0: 8728 8bbe f5cc 863e c162 713e 1ab8 ed3e
000002d0: d92a 833e 3f67 a9be 7b9d c6bc f6cc efbe
000002e0: 5054 2fbf 2ff7 d2be c1da fc3e f96f e83e
000002f0: 4e69 7fbf e373 0bbf 8497 dc3e 37af e93e
00000300: c97b a33d bd0a bd3e f31a 0cbe b83c 723e
00000310: 85ab 58bd 7d3e e4be 62a2 f83e baab d83c
00000320: 874f efbc c510 323c 9893 1cbf 3c5e f03d
00000330: 0987 c03e fc97 ba3d ec25 533d 5065 d33c
00000340: bd3b 82be 7d55 c2be 848c f83e 64c9 d3bc
00000350: fd83 4b3e 42f9 0cbf e631 c6be 7bf6 133f
00000360: 38f4 b5bb 7f54 6e3d 2bb7 15bf d676 873d
00000370: 4874 333f 8b89 32be b34c 283f 4e19 863f
00000380: 9b1b b63e 819e 6cbe 8693 3dbe d17e 0b3f
00000390: 6fd3 af3e 7535 213e c836 5dbd ace3 a8be
000003a0: fef8 fa3e 4c52 7cbe 7b13 003f a072 0bbf
000003b0: fdad 81be 3156 f03d 54dd fbbd 0a73 5dbe
000003c0: 214b 1cbf c7e0 843e e40b 68bf 6393 6fbe
000003d0: c52a 9bbd 3ce5 103f ad54 f43e bbeb 0f3f
000003e0: b464 5fbd 9711 d8be 0e64 053f 60d1 1cbf
000003f0: 2fa8 42be 11f5 323f 319f 76be 1cd9 0bbe
-0.13919324 0.91501045 0.13733649 0.26453805 0.2510829 0.50135857 0.002691154 0.5912099
0.24914815 -0.7620072 0.2805138 -0.23622845 0.4213697 -0.38805312 0.4020266 -0.17588836
-0.67821646 0.316198 0.73785985 -0.25885066 0.24211471 0.30705184 -0.017638098 -0.30019882
0.653491 0.9156234 -0.33567393 -0.3950131 -0.21773379 -0.22335367 0.5531064 -0.27244842
-0.14755946 0.32040247 -0.28329873 0.5052361 0.36542243 0.5755772 0.4263959 0.47610578
-0.07435176 -0.66873074 -0.5450757 -0.66249007 -0.18633127 0.07415204 0.0024476212 -0.019559156
-0.35489506 -0.22504602 -0.097721696 -0.5016541 0.5390743 0.5879902 -0.32368398 -0.4930644
-0.12304121 0.53684783 0.78822446 0.49002472 -0.58960915 0.26486588 -0.17775531 0.27348065
0.52144456 0.17781968 -0.3053273 -0.1524197 0.4360819 -0.18974133 -0.49062085 -0.07943635
0.1041872 -0.17685692 -0.24567756 -0.2678413 0.5318616 -0.40865463 -0.72239125 0.5431928
0.21703316 -0.10428351 0.42511857 0.2639204 0.66357654 0.34496474 0.8562216 -0.31047702
-0.38785484 0.44379038 -0.41320097 0.10342337 0.41083404 0.35298356 0.9298568 0.52393264
0.03735541 0.6119026 -0.42450485 -0.6013331 0.21062593 0.6776492 -0.27238172 -0.36118796
-0.2019617 -0.26512066 0.0722044 0.37876305 -0.08600693 0.852471 0.061873376 0.3295403
-0.3307364 0.08588113 -0.071767814 -0.3946325 0.07576347 0.12997667 -0.5677156 -0.19591069
0.059926935 0.19897541 -0.4445448 -0.57600933 0.38803023 0.2698059 0.8031426 0.7306734
-0.072141 0.45156872 0.1497708 -0.004775349 -0.61279094 0.0035053745 0.5651035 0.16994669
0.49827626 -0.2231914 0.6415948 0.72944415 -0.07032337 -0.18302584 0.39475396 -0.3249071
0.13789192 -0.26144794 -0.33396715 -0.31795365 -0.5595994 -0.4020356 0.10448064 0.28739884
0.41822985 0.34788185 -0.30603695 -0.2700697 -0.7648159 0.5938724 -0.35435387 -0.5234655
-0.27075198 -0.7726063 0.66997296 -0.4014369 0.50446033 0.28793007 -0.2707909 0.3673313
-0.00075815694 -0.72428614 0.45993406 0.13229339 0.6371084 0.6456112 -0.6307086 -0.6968973
-0.27179357 0.26328245 0.23572828 0.4642952 0.25618628 -0.33086583 -0.024245014 -0.4683606
-0.68488026 -0.4120421 0.49385646 0.45397928 -0.9977006 -0.54473704 0.43084347 0.4564149
0.079825945 0.36922255 -0.13682155 0.23655975 -0.05289795 -0.44578925 0.48561388 0.026449073
-0.029212726 0.010868256 -0.6116271 0.11736724 0.37603024 0.0911102 0.051549837 0.025805146
-0.25436202 -0.37955847 0.48544705 -0.025852866 0.19874568 -0.5506784 -0.38709944 0.57797974
-0.005552795 0.05818605 -0.5848262 0.06614463 0.70099306 -0.17435281 0.65742034 1.0476472
0.35567936 -0.2310734 -0.18513307 0.5449038 0.34341 0.15743048 -0.05400732 -0.329862
0.4901809 -0.24640769 0.50029725 -0.5447178 -0.25328055 0.1173519 -0.12298074 -0.21625915
-0.6105214 0.25952742 -0.90643144 -0.23396067 -0.07576517 0.56599784 0.47720852 0.5621907
-0.054539397 -0.4220092 0.52105796 -0.6125698 -0.1900947 0.6990519 -0.24084164 -0.1365704

fc1.bias f4 [16]
00000000: 4876 7f3f 357e 813f 84b2 663f 8944 3a3f
00000010: 14f5 4c3f 7822 683f b41b d83f 013b 283f
00000020: 40dd 6e3f e77a 653f 762b 823f 1d1d 503f
00000030: cdd5 473f e950 533f baa0 223f caa9 083f
0.9978986 1.011664 0.90116143 0.72760826 0.8006146 0.90677595 1.6883454 0.6571503
0.9330635 0.8964066 1.0169513 0.81294423 0.7806061 0.82545334 0.635265 0.5338408

fc2.weight f4 [16, 16]
00000000: f53f ba3f ff93 25bf 6a9d 673f 41ee f4be
00000010: dcf7 663f 3e96 6e3f 220a fe3e f1ae a63f
00000020: f8f1 a13f 1304 3fbf 577d 9cbf f819 a13e
00000030: 793a 89bf d683 473f 535e 863f 862f 843f
00000040: 10c8 62be 4042 00bd 30f5 e23c 8048 c13b
00000050: 0a2e 68be a28b 773e e46d 7ebe cca3 ba3d
00000060: 6c67 e5bd 1a61 01be 587d d6bd 5815 033e
00000070: 38c7 25be 2e5f 20be 5815 863d 544e 59be
00000080: 9fad 543f 51d4 883f 63af bd3f a18a 7cbf
00000090: 6c81 8e3f b954 b0be 52b0 8b3f d373 a53f
000000a0: a7b3 1cbf b5ab 8fbe 6232 d73f 4d87 b83f
000000b0: 41e6 55be 1275 51bf f933 18bf 9660 37bf
000000c0: 3e57 1dbf 66c7 c83f 4775 f53e f631 d93f
000000d0: a858 8d3f c94b 063f 53b1 a0bf 06bb 8ebf
000000e0: 7b85 ae3f 2c39 e9be c47d 223f 997e 933f
000000f0: c3ee c03f e6ab 413f c30f 4dbf 67dc 6f3f
00000100: 34f4 003f da05 2fbf 22dc ecbc 2023 173e
00000110: b983 bcbf db25 a73f c1dd b63f 2b67 abbf
00000120: 103c 9cbe 0623 263f 204b 67bc 30c1 423f
00000130: 5ca9 c23f 01a3 c93f bd6c b53e 7ac4 373f
00000140: 324f 6c3f 8e8d a33f ff7f 89bf 9679 bd3f
00000150: 99f8 3a3f 39a4 85bf 8e1e e43f 2f45 823f
00000160: db86 f83f c2a9 b93f 5e38 3f3f b07f 743f
00000170: fb44 6f3f fef2 18bf 3aff 0f3d 741a 14bf
00000180: 0843 ce3f a5eb bd3f 3027 713f 3b83 a33f
00000190: 4d4f 6f3f 836d ea3e f139 9cbe 9879 363f
000001a0: dd08 79bc bdcb febe 9097 c43f 7c1c 8dbe
000001b0: fddf e2be 4f1e 80be 5935 c03f 1a6f 52bf
000001c0: bcaf 68be 700d 56be 0884 75bd f841 183e
000001d0: 5a05 52be 9cdc 0fbe 3095 01be 4074 ed3c
000001e0: e866 16bd 90d4 54be 8036 ac3d 0088 7cbb
000001f0: bc5b dabd 8c41 803d ea68 153e 1c89 d4bd
00000200: 8c7c 63bf cbd6 6f3f 3296 c53d 55a9 d23f
00000210: 667f af3f 9f52 013e d24d 683f 8a36 38bf
00000220: 340b 9a3f 3e80 073f e4e2 d7be ee0b d6bf
00000230: 21c3 823f c5c0 5b3f e1e5 f8bf 6df8 d23e
00000240: 5f66 bf3f 4746 3b3f 4494 ea3f 7c83 963f
00000250: 109f b83f 859a ca3f 431d c63f b588 c1bf
00000260: b15c 1cbf 6ba1 86bf d688 8cbf 1ef2 79bf
00000270: d60e b5be a16e 7e3f 997f a2bf 7b62 0d3f
00000280: 2fa6 c1bf 84eb 9dbe e384 ab3d a968 2b3f
00000290: f3c0 05be 7f42 a53f 3792 e93f 5584 463f
000002a0: 0d88 15bf 528a 7dbd 7639 d8bf e555 0040
000002b0: 5548 c83d 23a3 703e 2f4a fb3f 9b34 913f
000002c0: 6f70 2b3f c686 35bf 408e 0a3e 0c79 813f
000002d0: e35c 61bf 1394 1ebf febc 963f 2a56 5a3f
000002e0: bfb4 86bf 08ce ae3f 902e b13f fd06 c8bf
000002f0: a100 e3ba 6c3f e33d ebd0 a93f 5b15 fe3e
00000300: 763b db3f 97aa af3d 34a2 4abf 0274 86bf
00000310: 92c8 0ebf 8552 a03f 6d11 01bf ce82 733f
00000320: c9ac 0240 4e6b 833d b551 953f 33ba 72bf
00000330: 4a61 cabe d834 ba3f f384 ec3f 8758 073e
00000340: c66d 49bf 25ef c3be a5a0 8bbe 2ea2 0d3f
00000350: 0d83 e13f 093f 37bf 6310 c73e 23c9 db3f
00000360: 0461 bf3e 9e0a c53f c01f 433e 4f75 acbf
00000370: c030 3fbe 6323 7b3f 3ffc fa3e 2220 df3f
00000380: d269 eebd 82b8 b23f 1108 bc3e d6a6 a73f
00000390: d68d 5c3d b6ca 4bbf 8dd6 b8bd 0d2a c53f
000003a0: eb51 c43f 060e 3f3f 183c 903f 2752 c13f
000003b0: 907c d43d 3598 8ebf 79f4 693f b6fa 873e
000003c0: 4019 28bf dd9c a0bf eef4 d73f 808e 87bf
000003d0: 7e0a 7c3d 9d10 913f 01b3 efbe c738 f93d
000003e0: 2ed6 bebf 7ae5 d83f 9de3 8a3f beae bb3f
000003f0: 930a fc3f 1e61 b03f c7c1 303f 1a34 be3f
1.4550768 -0.6467895 0.9047457 -0.47838023 0.90221953 0.93198 0.49617106 1.3022138
1.2651968 -0.7461559 -1.2225751 0.31465125 -1.072097 0.7793554 1.0497535 1.0327003
-0.2214663 -0.03131318 0.027704805 0.0058985353 -0.22673813 0.2417436 -0.24846607 0.09113273
-0.11201367 -0.12634698 -0.10473126 0.1280111 -0.16189277 -0.15661308 0.0654704 -0.21221286
0.83077425 1.0689794 1.4819149 -0.9864903 1.1133246 -0.34439638 1.0913184 1.2925972
-0.6121163 -0.2806069 1.6812251 1.441629 -0.20888616 -0.8181926 -0.59454304 -0.71631753
-0.61461246 1.5685852 0.47941038 1.6968372 1.1042681 0.5245939 -1.2554115 -1.1150825
1.3634485 -0.4555143 0.63473153 1.152301 1.5072864 0.7565292 -0.80102175 0.9369568
0.50372624 -0.68368304 -0.028913561 0.14759493 -1.4727699 1.3058428 1.4286424 -1.3390859
-0.30514574 0.6489719 -0.014117032 0.7607603 1.5207934 1.575287 0.35434523 0.71784174
0.9230834 1.2777574 -1.0742186 1.480273 0.7303558 -1.0440742 1.7821825 1.0177363
1.9416155 1.4504931 0.74695385 0.95507336 0.9346463 -0.59745777 0.035155512 -0.57852864
1.6114206 1.4837538 0.9420042 1.2774423 0.9348038 0.45786676 -0.30512956 0.7127929
-0.015199867 -0.49764815 1.5358753 -0.27560794 -0.44311514 -0.25023124 1.501628 -0.8220078
-0.22723287 -0.20903563 -0.059940368 0.14868915 -0.20509854 -0.14049 -0.12654567 0.028986096
-0.036719233 -0.20784211 0.084088326 -0.003853321 -0.10662028 0.06262502 0.14590803 -0.10377714
-0.8886192 0.93687123 0.09647788 1.6457926 1.3710754 0.12629174 0.90743744 -0.7195822
1.2034669 0.5293006 -0.4216529 -1.6722391 1.0215799 0.8584102 -1.9445153 0.4120516
1.4953116 0.7315411 1.8326497 1.1758876 1.4423542 1.5828406 1.547768 -1.5119845
-0.61078936 -1.0518011 -1.0979259 -0.97635067 -0.3536288 0.99387556 -1.269519 0.55228394
-1.512884 -0.30843747 0.083749555 0.66956574 -0.13061886 1.2910918 1.8247746 0.7754567
-0.5841072 -0.06189949 -1.6892536 2.0052426 0.09779421 0.23499732 1.9632014 1.1344179
0.66968435 -0.7090877 0.13530827 1.0115066 -0.8803236 -0.61944693 1.1776426 0.85287726
-1.0523909 1.3656626 1.3842335 -1.5627133 -0.0017318913 0.11096081 1.3266882 0.49625668
1.7127521 0.08577459 -0.7915375 -1.0504153 -0.55774796 1.2525183 -0.50417215 0.9512147
2.041796 0.06416951 1.166556 -0.9481537 -0.3952735 1.4547377 1.8478073 0.13217364
-0.78683126 -0.3826839 -0.27271 0.5532559 1.7618119 -0.7158056 0.3887969 1.7170757
0.37378705 1.5393865 0.1905508 -1.34733 -0.1867094 0.9810087 0.49020573 1.7431681
-0.116412774 1.3962557 0.36724904 1.3097789 0.053846203 -0.7960619 -0.09025297 1.5403458
1.5337499 0.74630773 1.1268339 1.5103196 0.10375321 -1.11402 0.9138866 0.26558465
-0.6566353 -1.2547871 1.6871622 -1.0590363 0.061533444 1.1333195 -0.46816257 0.121690325
-1.4909112 1.6945031 1.0850712 1.4662702 1.9690727 1.3779638 0.6904568 1.485965

fc2.bias f4 [16]
00000000: 00cc 02bf c03a c4bd 434f a63f 5a7e e2bc
00000010: 179d 703f 2227 0b3f 7ee8 4fbe a28c 1dbe
00000020: 31fd 4b3f fc6b 2f3f cef2 ef3e 99a3 0d3f
00000030: 3d57 2f3f a672 17be 1aaf cfbe 8cb7 6c3e
-0.5109253 -0.09581518 1.2992939 -0.02764814 0.939897 0.54356587 -0.20303532 -0.15385678
0.79683214 0.68524146 0.46864933 0.55327755 0.6849249 -0.14789829 -0.4056328 0.23116893

fc3.weight f4 [55, 16]
00000000: 0f9d f5be 7c11 c0bd 684f af3e 5e69 cdbe
00000010: 67f0 f83d c7e2 c43d f308 40be 9cf5 91bd
00000020: c410 6f3e 3be5 83bc 4eaf abbd de46 61be
00000030: f6a1 b83e 1bac 93be 56ca c6bd 2f1c e1be
00000040: d72c 8b3e 3856 44be bf5e 28bf f08d 443e
00000050: 1d2c 17bb 6c2f 49bf 1a6b 0cbe 28cf 303d
00000060: 02a3 093e 3f80 d63e b4f6 dcbe f4d5 5ebf
00000070: 1435 103f d7e5 903d 034a 11bf 3e27 41bd
00000080: 0729 e13e 8429 cbbd 7720 c13e 2469 81bf
00000090: e736 1fbe 896a 78be ee2f 78bf 0058 2abb
000000a0: 157f 4bbf 9d35 09be 7bee c63e 91cc 34be
000000b0: 7882 c5bf de09 bf3e a87d 113e d67b 1d3e
000000c0: 90c3 06bf cc0b 7e3e 6f00 bebf 9b52 133f
000000d0: 4c56 bc3e 733d 40be 2d1c 00c0 96d8 0d3e
000000e0: 986e a23e 9c87 b6be 4924 373e cb6b d8bf
000000f0: 4dc5 703d a4b8 22be 0c50 0cbf f604 003f
00000100: 63de fa3d 0cb3 a0bd 1de8 8bbf 07cd a5be
00000110: 405e 403d 8f7a 003e d671 48be a00a df3d
00000120: ca8b a6be 01ef a0bf 2624 09bf 2259 a83e
00000130: ebff 343f 52a4 723e d79d 99be 5dba b9bc
00000140: 3526 1a3e 2010 1f3c 56c9 19bf 3188 863e
00000150: e2d7 c3bb 1203 083e 7a55 83be ea98 173e
00000160: 5cf0 253e 5d35 55bd 7381 0b3f 7caa 34c0
00000170: 1596 04bd 8088 f3bd 6e6b 9ebe 9a4b 02bf
00000180: c2a4 b63e c00b 003e 3326 103e 23b4 e5be
00000190: 7052 1abf 2665 39bf a649 a83e 5c1d d13d
000001a0: a6c8 c0bf 4942 473e 9289 7d3b 2dec 76bf
000001b0: 3566 f93d dc9c 553e 03f4 55be 6442 8a3d
000001c0: bbe0 81bf ac30 a13d d2b9 39bf f5b4 893e
000001d0: 1cc4 c73e f007 013f b6e2 813e fc72 63be
000001e0: 93f6 70bf 1901 bfbf 5526 debe ac8b 44bf
000001f0: 56c6 ab3e 62b9 05bf 05db 923e dcdf d0bd
00000200: aeed 24bf 4815 6fbd c55b fbbf 737e 4e3e
00000210: afe9 8f3e 44cb 33be 9872 77be d2c1 1b3e
00000220: 67e2 04bd d8b2 b4be b9e6 803e bc14 a9bd
00000230: 3da3 ddbd 39a9 44be 8c10 2f3e c74d 3d3d
00000240: 00ab 313e 262a 2dbe fa09 5dbf edf2 64be
00000250: c5a8 833e 7f06 08bf 2a3c 94bf e20e 39be
00000260: bee5 03be 868f b53e 638a 0d3f 2583 e8be
00000270: f4e2 15bf 0579 723c 8e6f 32bf 0ba0 a53e
00000280: 1d77 81bf 80c3 bbbc 837b a93d 189d 503e
00000290: d8af a43e 4996 0cbf 08bb dabe c241 03be
000002a0: 1089 403c 1cbd ad3a 537f 053d 5a3d 04be
000002b0: 84b5 dcbf bb62 f03d 1bbd b4bd 947b e83e
000002c0: 2308 62bf 800c 113d 6a1a 57bf 7fde 413e
000002d0: aeac 883d b566 a8bd f163 c5bf 6491 14be
000002e0: a649 ac3d b318 d2bf c44a e9bd 614e 783e
000002f0: c643 a2be 9a3c d33e 73b3 3f3e 990a c13e
00000300: ce66 0f3e 18f6 42bd ca65 d5be 7073 dc3e
00000310: 3742 65be cab5 893d 18e4 05bc be2a 783e
00000320: dcaf 9dbe a650 bc3d cdb9 3abf 400f 17c0
00000330: 60ea 46be 9bfe 21bf daa7 8e3e f4d4 0e3e
00000340: 05f4 c6bf 848a 53be 21c2 58bf aafe 4e3e
00000350: c831 993e 7a3c c9bc 19de 41bf 50da a43d
00000360: b05e 033f 55c4 5ebd 1115 38bf d97e 39be
00000370: e233 d43e 9418 ab3d 4f8c 02bf cdf7 913e
00000380: 8aab dcbe c090 29bc 4535 06bf 28e7 4abf
00000390: a359 0e3f 11b3 9a3e fed4 10bf c0c7 23bc
000003a0: a477 ddbf 435b 94bf 4bbe af3e cff3 843e
000003b0: 476c 0a3e 5e50 d8be 1411 88bd 0d60 8b3e
000003c0: 8b44 80be 30a7 4abe 9853 103e 9979 99be
000003d0: a156 93bf 9d52 003f 6dd6 8bbd 0e64 273e
000003e0: 9df5 14bf 5208 e5bf a28c a33e 1105 babe
000003f0: b466 26be bb90 d73e b142 a13e 33a1 56bf
-0.4797139 -0.09378335 0.3424027 -0.4011945 0.12155228 0.09613567 -0.18753414 -0.071269244
0.2334624 -0.016100517 -0.08383046 -0.2199969 0.36061066 -0.28842244 -0.09706561 -0.43966815
0.27182648 -0.19173515 -0.6576957 0.1919477 -0.0023067065 -0.78587985 -0.13712731 0.04316631
0.13441089 0.4189472 -0.4315697 -0.87045217 0.5633099 0.070750885 -0.5675356 -0.047156565
0.43976614 -0.09920028 0.3772008 -1.0110211 -0.15548287 -0.2425939 -0.96948135 -0.0025992393
-0.79490787 -0.13399358 0.3885382 -0.17656161 -1.5430441 0.37312216 0.1420809 0.15379271
-0.52642155 0.24809188 -1.4843882 0.5754792 0.3678459 -0.18773441 -2.0017197 0.13852152
0.31725 -0.35650337 0.17884935 -1.6907896 0.05878191 -0.15890747 -0.5480964 0.5000757
0.12249448 -0.078466505 -1.093021 -0.32382986 0.046964884 0.12546752 -0.19574675 0.108906984
-0.32528526 -1.2572938 -0.53570783 0.32880503 0.70703 0.23695496 -0.30003235 -0.022671873
0.15053637 0.009708434 -0.6007284 0.2627578 -0.005976663 0.13282421 -0.2565115 0.14804426
0.16204971 -0.052052844 0.544944 -2.8229055 -0.032369692 -0.1189127 -0.30941337 -0.5089661
0.35672575 0.12504482 0.14077072 -0.44863996 -0.6028204 -0.72419965 0.3286869 0.10210678
-1.5061233 0.1945888 0.0038686735 -0.96454126 0.121776976 0.20860618 -0.20893864 0.06750944
-1.0146707 0.078706115 -0.72549164 0.26895872 0.39016807 0.50402737 0.2536828 -0.22211832
-0.9412624 -1.492221 -0.4338862 -0.7677562 0.33549756 -0.52235997 0.28682724 -0.10198948
-0.6442517 -0.058369905 -1.9637381 0.20165424 0.28107974 -0.17558008 -0.24164808 0.15210655
-0.032442477 -0.35292697 0.25176027 -0.08255908 -0.10822151 -0.19205178 0.17096156 0.046216752
0.17350388 -0.1691061 -0.8634335 -0.22358294 0.25714698 -0.5313491 -1.1580861 -0.18072084
-0.12880608 0.35461062 0.55289286 -0.45412555 -0.5854943 0.014799361 -0.6970147 0.32348666
-1.0114475 -0.02292037 0.08275511 0.20372427 0.32165408 -0.54916817 -0.4272082 -0.12818053
0.011751428 0.0013255212 0.03259213 -0.12914029 -1.7242894 0.11737581 -0.088251315 0.45406783
-0.88293666 0.03541231 -0.8402468 0.18932532 0.06673561 -0.08222715 -1.5421125 -0.14508587
0.08412485 -1.6413788 -0.113912135 0.24248649 -0.31692332 0.41257173 0.18720798 0.37703398
0.1400406 -0.047597975 -0.4167922 0.43056822 -0.2238854 0.06724127 -0.008172058 0.24235055
-0.30798233 0.0919507 -0.7293976 -2.3603058 -0.19425344 -0.6327912 0.27862436 0.13948423
-1.5543219 -0.20658308 -0.8467122 0.20214334 0.29920793 -0.02456497 -0.7572952 0.08049452
0.51316357 -0.054386456 -0.71907145 -0.18114795 0.41445833 0.08354297 -0.50995344 0.2850937
-0.43099624 -0.0103494525 -0.5242503 -0.79258966 0.55605525 0.30214742 -0.56575 -0.009996355
-1.7302136 -1.1590351 0.3432487 0.2596726 0.13517867 -0.42248815 -0.066438824 0.27221718
-0.25052294 -0.1979034 0.14094388 -0.29975584 -1.1510812 0.5012606 -0.06828008 0.16346762
-0.58187276 -1.7893164 0.31943232 -0.3633199 -0.16250116 0.42102608 0.31496194 -0.8383972

fc3.bias f4 [55]
00000000: 1496 dd3e 250d b3be c97d e93d 1245 d1bd
00000010: d496 5ebd ed66 77be 8671 a0bd e5ed e3bd
00000020: 3466 e6bd ccde dabd 3940 99be d324 a4be
00000030: 86d4 31be 1959 163e c2f3 21be 1efd 55be
00000040: 453c bcbe 53e3 30be 15ab 0f3d 8430 73be
00000050: 69a3 9bbd b0f5 eebd e1dd 173e 70fb 96be
00000060: 1309 5c3e 7b9a b8be 248d c6bd 4654 783e
00000070: e250 52be 6674 dcbc 39c8 223e ae31 973e
00000080: b1a9 eb3d 7187 633e e4b2 b03e b9e0 c9bd
00000090: 6f86 86be a164 acbe 5d19 adbe ae6f 1dbe
000000a0: e24a da3e c56a 8f3e f9ca 983e 52c9 c5bd
000000b0: f5a1 973d 6676 ed3d e313 bc3d d4cc 38be
000000c0: 1618 963d 6ac8 3cbc 97d2 e03d c2f9 053d
000000d0: 7fe8 6bbd 74e3 cd3e 13a0 d4bc
0.43278563 -0.34970966 0.11400945 -0.10218252 -0.05434306 -0.24160357 -0.07834153 -0.11129359
-0.112499624 -0.106870264 -0.2993181 -0.32059345 -0.17366228 0.14682426 -0.15815642 -0.20897338
-0.36764732 -0.17274217 0.035075266 -0.23748976 -0.075995274 -0.11667955 0.14830734 -0.29488707
0.21487837 -0.3605536 -0.09694889 0.24250898 -0.20538667 -0.026910972 0.15896691 0.2953009
0.115069754 0.22219636 0.34511483 -0.098573156 -0.2627444 -0.33670524 -0.33808413 -0.15374634
0.42635256 0.28011146 0.29842356 -0.096575394 0.07403938 0.11594848 0.091834806 -0.18046886
0.07328813 -0.011522392 0.10977667 0.03270889 -0.057594772 0.40212595 -0.025955236
