NeuraLite_Chatbot/model/data.pth (torch, 8682 bytes, 6 tensors)

fc1.weight f4 [16, 58]
0	0xbd1cac32	-0.038250156
1	0xbf07c577	-0.5303568
2	0x3d25ea22	0.04050649
3	0x3e5307fc	0.20608515
4	0xbe8c40e4	-0.27393258
5	0x3cc26375	0.023729065
6	0xbe67eaf0	-0.22648215
7	0x3eceb492	0.4037214
8	0xbd9e9eae	-0.077451095
9	0x3ef27f3f	0.47362706
10	0x3d9dbec2	0.077024
11	0x3e70951b	0.23494379
12	0x3eda225d	0.42604342
13	0xbe84d365	-0.2594253
14	0xbd068e32	-0.03285045
15	0x3daf59ea	0.085620716
16	0x3f3a57dd	0.7279032
17	0xbe8acf7c	-0.27111423
18	0x3ed7575e	0.42058843
19	0x3e0f906a	0.14019933
20	0xbdfa2a2a	-0.122150734
21	0xbecd6ea2	-0.4012347
22	0xbe464919	-0.19363822
23	0xbeed3c75	-0.46335188
24	0x3ed5adb6	0.41734093
25	0xbed555cd	-0.41667023
26	0x3d8ee6d5	0.069776215
27	0x3df47eeb	0.1193827
28	0x3c51fbe2	0.012816401
29	0x3ec981fe	0.3935699
30	0x3e21a1e6	0.15784416
31	0x3cb3ca79	0.021947132
32	0x3d4031f0	0.046922624
33	0x3d1e9929	0.038720284
34	0x3e2570e3	0.16156344
35	0xbe494c18	-0.19657934
36	0x3e81fc7f	0.25387952
37	0xbdeba54e	-0.11506139
38	0xbea6e1f3	-0.3259426
39	0x3f1a26e1	0.60215575
40	0x3eb6b783	0.35686883
41	0xbd9fbcc5	-0.07799677
42	0xbc4fb0e0	-0.012676448
43	0x3e94018c	0.2890743
44	0x3da8d74c	0.082441896
45	0x3ef2dbcc	0.47433317
46	0x3ee3adff	0.44468686
47	0x3e2e8334	0.17042238
48	0xbe90623f	-0.28199956
49	0xbe72f77b	-0.23727219
50	0x3dbc2d92	0.09188379
51	0xbee4b2eb	-0.44667754
52	0xbe8af000	-0.2713623
53	0x3d209f65	0.03921451
54	0x3f1d44ac	0.6143291
55	0x3e70f613	0.2353137
56	0x3e847390	0.25869417
57	0x3e81ba12	0.25337273
58	0xbed8e6a3	-0.42363462
59	0x3f56fd00	0.839798
60	0x3ec25722	0.37957102
61	0xbe3175de	-0.17330119
62	0x3da94629	0.08265335
63	0x3ee02a05	0.43782058
64	0x3ea53236	0.3226487
65	0xbeb508bc	-0.35358226
66	0xbd793308	-0.060839683
67	0xbdfe052a	-0.12403329
68	0xbda79d43	-0.08184292
69	0x3eb5eb19	0.35530928
70	0xbec46905	-0.38361374
71	0x3e0bc91a	0.13650933
72	0xbe7fa6ea	-0.24966016
73	0xbe7cefae	-0.24700806
74	0xbec648ae	-0.38727325
75	0x3df6df4a	0.12054308
76	0xbeb8791a	-0.36029893
77	0x3eadc568	0.33939672
78	0xbe6418d7	-0.222751
79	0x3ec4da3c	0.3844775
80	0x3e12b675	0.14327414
81	0x3ec87519	0.39151838
82	0x3ee5c752	0.44878632
83	0x3eed2ede	0.4632482
84	0xbde67296	-0.11252324
85	0x3e877656	0.2645747
86	0xbdbad890	-0.09123337
87	0xbf14394b	-0.5789992
88	0xbe81e59f	-0.253705
89	0xbdceee02	-0.1010399
90	0xbe8c3f04	-0.27391827
91	0x3e8047d6	0.25054806
92	0xbead2adb	-0.3382176
93	0x3ce28678	0.02765201
94	0x3ec7ebd4	0.3904711
95	0x3e4bd6c0	0.1990614
96	0x3f24753c	0.64241385
97	0x3dfae491	0.12250627
98	0x3eb4a96b	0.35285506
99	0xbe647477	-0.22310053
100	0x3e9dc11a	0.30811387
101	0xbe691e18	-0.22765386
102	0xbe86af7f	-0.26305768
103	0xbe7ccebf	-0.24688242
104	0xbe7ce778	-0.24697673
105	0x3ea1bba9	0.31588486
106	0xbe687742	-0.22701743
107	0x3e848fdb	0.25891003
108	0xbda67460	-0.081276655
109	0x3e981310	0.29702044
110	0xbf15ea2a	-0.5856043
111	0xbd3eaed0	-0.046553433
112	0xbd801e8e	-0.06255828
113	0x3e444d1e	0.19170043
114	0x3dc3a6cd	0.09553299
115	0xbafb2967	-0.0019162119
116	0xbe8ec1b8	-0.2788217
117	0xbf0817ae	-0.5316113
118	0x3f0f40f9	0.55958515
119	0xbea77587	-0.32706854
120	0x3e744998	0.23856199
121	0xbe6fb205	-0.23407753
122	0x3e94d044	0.29065144
123	0xbd97fd65	-0.07421378
124	0x3e9f4b98	0.3111236
125	0x3dd36e0d	0.10323725
126	0x3d06c10d	0.03289895
127	0x3f18618e	0.59523857
128	0xbe77cd2c	-0.2419936
129	0x3e883af4	0.26607478
130	0x3e80f12f	0.25184008
131	0x3d9fb358	0.07797879
132	0x3f2d0f42	0.67601407
133	0x3e3ef138	0.18646705
134	0xbe3af9ab	-0.18259303
135	0xbe885a34	-0.2663132
136	0xbe33239f	-0.17494057
137	0x3ee0de5f	0.43919656
138	0x3e15a55f	0.14613865
139	0x3e7f88f2	0.24954584
140	0xbea06032	-0.3132339
141	0xbe837591	-0.25675634
142	0x3e644aa2	0.22294095
143	0x3eb353c7	0.35024855
144	0x3de0cb07	0.109762244
145	0xbef9b860	-0.4877348
146	0xbdf360b4	-0.11883679
147	0xbe451de4	-0.19249684
148	0x3e5d7c1f	0.2162938
149	0x3ebe82e4	0.37209237
150	0x3ebe6416	0.37185735
151	0x3d6b760e	0.057485633
152	0xbdd7547c	-0.10514161
153	0x3e91c86c	0.28473222
154	0xbe87f78c	-0.2655605
155	0x3e32c862	0.17459252
156	0xbddc3322	-0.1075194
157	0x3ea9d8fe	0.33173364
158	0xbde76f4a	-0.113005236
159	0xbb0f741d	-0.0021889277
160	0x3e5dba37	0.21653067
161	0xbe9b8eb4	-0.3038231
162	0xbed10ddd	-0.4083089
163	0x3ed7fe05	0.4218599
164	0x3ec0d7b5	0.3766457
165	0x3e1a516f	0.15070127
166	0xbd0269ff	-0.031839367
167	0x3f0cc480	0.54987335
168	0x3e01e260	0.12684011
169	0x3e074f5a	0.13213864
170	0xbf15f140	-0.58571243
171	0xbdfa45dd	-0.122203566
172	0xbda1cb3f	-0.07900094
173	0xbe210fc1	-0.15728666
174	0xbc5c16f1	-0.013433204
175	0x3ee725ab	0.45145926
176	0xbe2fb784	-0.1715985
177	0x3e361c6c	0.1778428
178	0x3ea12b97	0.3147857
179	0x3efbc973	0.4917713
180	0x3e9e8df1	0.30967668
181	0x3e919de1	0.28440765
182	0xbe3f3912	-0.18674114
183	0xbe170a31	-0.14749981
184	0x3e828f99	0.2550018
185	0xbec5693c	-0.3855685
186	0x3ee46145	0.4460546
187	0x3e2ad4cb	0.16682737
188	0x3da69aaa	0.081349686
189	0x3db42224	0.08795574
190	0xbeb00fa8	-0.34386945
191	0x3dcaafb7	0.09896796
192	0x3e7b85ab	0.24562709
193	0x3eab87c8	0.3350203
194	0xbdcaf78f	-0.09910499
195	0x3efc0949	0.49225834
196	0x3f0291f7	0.51003975
197	0x3e6f8b6b	0.23393027
198	0x3eb19ba3	0.34689054
199	0x3f11e319	0.5698715
200	0x3e006542	0.12538627
201	0xbdbc829b	-0.092045985
202	0x3e901158	0.28138232
203	0x3dd4c30e	0.10388766
204	0x3ea3d25c	0.3199643
205	0x3ec3ebe6	0.38265914
206	0x3e6c1f6a	0.23058859
207	0xbdab86ea	-0.08375342
208	0xbec418dc	-0.38300216
209	0x3ea2b167	0.31775972
210	0x3ee316b6	0.44353265
211	0x3e92a265	0.28639522
212	0x3ef3c04c	0.47607648
213	0x3e080cd9	0.13286151
214	0x3ec370a9	0.3817189
215	0x3e74c921	0.2390485
216	0x3e92a6b4	0.2864281
217	0x3e2094af	0.15681718
218	0xbe141e2c	-0.14464635
219	0x3ea40918	0.32038188
220	0x3e183ca5	0.14866884
221	0xbdb3a50b	-0.08771714
222	0x3e981baf	0.2970862
223	0x3dbcfbfe	0.09227751
224	0x3e923cdd	0.2856206
225	0x3ed90e1b	0.42393574
226	0x3e335775	0.17513831
227	0x3e9a3f07	0.3012621
228	0xbf043b99	-0.5165344
229	0x3e8adc86	0.2712137
230	0x3ea49901	0.32147983
231	0x3ec88ce3	0.39169988
232	0x3e2bec40	0.16789341
233	0xbe8a7776	-0.27044266
234	0xbe5c7dba	-0.21532336
235	0x3ed00739	0.4063051
236	0x3e96fc71	0.29489473
237	0x3e9a799c	0.30170906
238	0x3ea89a7b	0.3293036
239	0x3eeaf97e	0.45893472
240	0xbe5c1abe	-0.21494576
241	0xbced5b8d	-0.028974319
242	0xbe223e58	-0.15844095
243	0xbe0049a5	-0.12528093
244	0x3eafc8e8	0.34332967
245	0x3e8337b4	0.25628436
246	0x3ca752fa	0.020425308
247	0xbe7e079d	-0.24807592
248	0xbed6a0be	-0.41919512
249	0x3e1558ec	0.14584702
250	0x3f09046c	0.5352237
251	0xbea69935	-0.32538763
252	0x3d484da1	0.048902158
253	0x3e821a08	0.25410485
254	0x3e7a74ab	0.24458568
255	0x3e95e2b2	0.29274517

fc1.bias f4 [16]
0	0x3f07cff6	0.530517
1	0x3ec60e5a	0.38682824
2	0x3f06a0c7	0.52589077
3	0x3f0e94fb	0.55696076
4	0x3ed641ac	0.4184698
5	0x3f0cf863	0.5506651
6	0x3e61ed9d	0.22063299
7	0x3ebc1693	0.36735973
8	0x3eb09f9e	0.34496778
9	0x3e8598d5	0.26093164
10	0x3e9a2028	0.30102658
11	0x3eaf8daa	0.3428777
12	0x3e67cc29	0.22636475
13	0x3f05a0fe	0.5219878
14	0x3f0de444	0.5542643
15	0x3eddb1b7	0.43299648

fc2.weight f4 [16, 16]
0	0x3f0a6a87	0.540688
1	0xbe4a1b20	-0.1973691
2	0x3e0ba199	0.13635863
3	0x3e095813	0.13412504
4	0x3e5a0d6e	0.21294186
5	0x3edb02fa	0.42775708
6	0x3e5cade6	0.21550712
7	0xbe99d403	-0.30044565
8	0x3f4f7260	0.810339
9	0x3f36351a	0.71174777
10	0x3e13c687	0.14431201
11	0x3f6ab2e4	0.91679215
12	0x3ed729d6	0.42024106
13	0x3f4f0b8c	0.80876994
14	0xbf27318d	-0.65309983
15	0xbefcc0f8	-0.49365973
16	0xbe89e360	-0.26931286
17	0x3f500c71	0.81268984
18	0x3e98f6aa	0.2987569
19	0xbe4248d4	-0.18973094
20	0x3d9f5b54	0.07781091
21	0x3ef0c599	0.47025755
22	0xbf4b651b	-0.7945115
23	0xbcc66173	-0.02421639
24	0x3f06b397	0.5261778
25	0xbef945d7	-0.48686096
26	0x3e54f4dd	0.20796533
27	0xbeedb7f1	-0.464294
28	0xbf2695a4	-0.65072083
29	0x3ecb9ee3	0.39769658
30	0x3eff7300	0.49892426
31	0x3f44550e	0.76692283
32	0x3f4fa92c	0.8111751
33	0xbece7cc8	-0.40329576
34	0x3e6cb201	0.23114778
35	0xbd8fe4a8	-0.070260346
36	0x3f1086f2	0.5645591
37	0x3f3ad9fd	0.72988874
38	0xbeda8e6b	-0.4268678
39	0xbf196546	-0.59920156
40	0x3ea205f7	0.31645176
41	0xbf177a6f	-0.59171194
42	0xbee2523d	-0.44203368
43	0x3e9c43ff	0.30520627
44	0x3e9bfbe1	0.30465606
45	0x3e91a504	0.2844621
46	0x3f080ce5	0.53144675
47	0xbe21cf40	-0.15801716
48	0x3f08127c	0.53153205
49	0x3e96fc3b	0.29489312
50	0x3f0ae820	0.54260445
51	0x3da86e96	0.082242176
52	0xbe885ed8	-0.2663486
53	0x3ec534a0	0.38516712
54	0xbf16eaf5	-0.58952266
55	0xbea9c009	-0.33154324
56	0x3d5547bb	0.05207036
57	0x3f8d032b	1.1016592
58	0xbe8cd209	-0.27503994
59	0x3e2ba95f	0.16763829
60	0xbdb12cc7	-0.08651119
61	0x3a1c6a47	0.00059667643
62	0xbeff6ca7	-0.49887583
63	0xbe32bc6a	-0.17454687
64	0xbe248189	-0.16065039
65	0x3dcdd4ce	0.10050355
66	0xbd1bf6cc	-0.03807716
67	0x3d21e4cf	0.03952485
68	0x3e11482e	0.1418769
69	0xbe7a4085	-0.24438675
70	0xbd9c1faa	-0.07623227
71	0x3bae844d	0.00532583
72	0x3e08b84d	0.13351555
73	0x3d53ff8f	0.05175739
74	0xbe3f38b1	-0.1867397
75	0x3e0f0665	0.13967283
76	0xbd5921b0	-0.053010643
77	0x3b9de389	0.004818384
78	0x3d270f43	0.04078604
79	0x3e0a837e	0.13526723
80	0x3f67890b	0.90443486
81	0xbe71869e	-0.23586509
82	0x3d86c55a	0.065806106
83	0x3eb0cc03	0.3453065
84	0xbf687ada	-0.90812457
85	0xbf0f7203	-0.56033343
86	0x3f3ca355	0.73686725
87	0x3f3c6906	0.73597753
88	0x3e855626	0.2604229
89	0x3f142542	0.5786935
90	0x3e852cba	0.26010686
91	0xbf72b158	-0.94801855
92	0x3eaca957	0.33722946
93	0x3e238a3d	0.15970702
94	0x3f440400	0.76568604
95	0x3f0c4438	0.54791594
96	0x3e1c7585	0.15279205
97	0xbdf14f38	-0.11782688
98	0x3c9c6ab0	0.019093841
99	0xbe2deb60	-0.1698432
100	0xbe1d5402	-0.15364078
101	0xbd86c784	-0.06581023
102	0x3d9839fb	0.07432934
103	0x3badbc50	0.0053019896
104	0x3d9a5005	0.07534794
105	0xbd872d32	-0.06600417
106	0xbe1f3876	-0.15548882
107	0x3dbfd6f8	0.09367174
108	0xbe548cc8	-0.20756829
109	0x3d635928	0.055504948
110	0xbe9cd41e	-0.30630583
111	0x3dd540e0	0.104127645
112	0x3eb23ca4	0.3481189
113	0x3f576557	0.8413901
114	0xbf112dad	-0.5671032
115	0x3f25adae	0.6471814
116	0x3f29c4c2	0.66315854
117	0xbe48daac	-0.19614667
118	0x3f1c3075	0.6101144
119	0x3e811528	0.25211453
120	0xbe753408	-0.2394563
121	0xbf562881	-0.83655554
122	0x3f801b5b	1.0008348
123	0x3f0b377c	0.5438154
124	0xbd918efd	-0.07107351
125	0x3f2e2f69	0.6804109
126	0x3eb4b5c9	0.3529494
127	0x3e5c5051	0.21515013
128	0x3e65b7ae	0.2243335
129	0x3f5249f2	0.8214408
130	0x3f06c23c	0.5264013
131	0x3f241b9c	0.6410463
132	0x3e80ecf2	0.25180775
133	0x3e139232	0.14411238
134	0xbec6b147	-0.38807127
135	0x3f2ac977	0.6671366
136	0xbf31c448	-0.69440126
137	0xbe8e157c	-0.27750766
138	0x3e696e72	0.22796038
139	0xbe42710d	-0.18988438
140	0xbe8e3879	-0.2777746
141	0xbf273f03	-0.65330523
142	0xbd2a8d92	-0.04163892
143	0x3f0daf66	0.5534576
144	0xbf0f8991	-0.56069285
145	0x3f4181a3	0.75588435
146	0xbecafacc	-0.39644468
147	0x3f57fa11	0.84365946
148	0xbe21cbc0	-0.1580038
149	0x3f004aaf	0.5011396
150	0xbe60d56e	-0.21956417
151	0x3b804b90	0.0039152578
152	0xb9fe4d22	-0.00048504124
153	0x3e98ceef	0.29845378
154	0x3ec3dd8c	0.38254964
155	0xbd387a36	-0.045038424
156	0x3f48481a	0.7823502
157	0xbf35e6de	-0.710554
158	0x3eed5b0f	0.46358535
159	0xbdefd953	-0.11711373
160	0xbeb84c0a	-0.35995513
161	0xbeff41e9	-0.49854973
162	0x3f23b88d	0.6395348
163	0x3e968096	0.29394978
164	0x3f097572	0.5369483
165	0x3f3aed96	0.7301878
166	0xbf284e93	-0.65744895
167	0x3dc3794c	0.0954462
168	0xbbfd6b98	-0.0077337734
169	0x3d8de895	0.06929127
170	0xbed3b3d8	-0.41348147
171	0x3e586eb1	0.21135975
172	0x3e850e94	0.25987685
173	0xbf35d8e0	-0.7103405
174	0x3f2a1be0	0.66448784
175	0xbdfabb2e	-0.12242733
176	0x3f096168	0.53664255
177	0xbf5c69e2	-0.86099064
178	0xbe5e588f	-0.2171347
179	0x3f22c55c	0.63582397
180	0x3f122b3e	0.5709723
181	0x3d76bec7	0.060240533
182	0x3d27a2c5	0.040926713
183	0xbf33c4fc	-0.7022245
184	0xbd9b5e6f	-0.07586371
185	0xbedf55d4	-0.4362017
186	0xbe9b9d03	-0.30393228
187	0x3f2a1e02	0.6645204
188	0x3e8c4457	0.2739589
189	0x3f11cd0a	0.5695349
190	0x3f15c95e	0.58510387
191	0xbf4cd084	-0.8000567
192	0x3ef962dc	0.48708236
193	0x3dcd7cdf	0.10033583
194	0x3f575fed	0.84130746
195	0x3ce201fb	0.027588835
196	0x3f0de922	0.5543386
197	0x3f1794b7	0.59211296
198	0xbef21ffa	-0.4729002
199	0x3f60633c	0.8765142
200	0xbec6a79d	-0.38799754
201	0x3efb3a8d	0.49068108
202	0xbeb59959	-0.35468557
203	0xbf2ba508	-0.6704869
204	0xbf339e99	-0.70163876
205	0xbd6e18a9	-0.058128987
206	0x3e50008e	0.20312712
207	0x3f496ff4	0.7868645
208	0xbf4e0fb3	-0.80492705
209	0x3f0aba07	0.54190105
210	0x3f0bfee7	0.54685825
211	0x3f06ba6a	0.52628195
212	0x3f41b304	0.7566378
213	0x3f1ce96e	0.61293685
214	0x3f28e782	0.6597825
215	0xbed12d7f	-0.40855023
216	0x3f2885cf	0.65829176
217	0x3f1dbbe6	0.61614835
218	0xbbadc63a	-0.0053031715
219	0x3f72698f	0.9469232
220	0xbd7d139f	-0.06178629
221	0x3f0acf32	0.54222405
222	0xbf01ea6d	-0.5074833
223	0x3f177fca	0.59179366
224	0x3e23ae70	0.15984511
225	0x3f1edfdd	0.6206034
226	0xbef248cf	-0.47321174
227	0x3e435cdd	0.19078393
228	0xbf2035ed	-0.62582284
229	0x3efa646f	0.4890475
230	0xbe26bc33	-0.1628273
231	0xbe20b4d0	-0.15693974
232	0x3f356399	0.708551
233	0x3eef8e93	0.46788463
234	0x3f559280	0.83426666
235	0xbdd9900a	-0.106231764
236	0x3ead85c8	0.3389113
237	0x3e9235c1	0.28556636
238	0x3dcbd45c	0.09952614
239	0x3eb3adaf	0.35093448
240	0x3cc1b4a8	0.023645714
241	0xbea02f34	-0.31286013
242	0x3e4357c8	0.19076455
243	0x3f461ad9	0.77384716
244	0x3f0c195e	0.5472621
245	0xbdb1d080	-0.08682346
246	0x3f13520c	0.5754707
247	0xbe9ba367	-0.30398104
248	0xbeca6049	-0.39526585
249	0xbf10e0db	-0.565931
250	0xbf34895f	-0.7052211
251	0x3f000d8b	0.50020665
252	0x3efbbd76	0.49167985
253	0xbe1e9e08	-0.15489972
254	0x3f5c5073	0.86060256
255	0x3f5116ee	0.8167561

fc2.bias f4 [16]
0	0x3ed5559a	0.4166687
1	0x3e48158c	0.1953947
2	0x3f037f05	0.5136569
3	0xbd2dbc5d	-0.042415965
4	0xbe6038ea	-0.21896711
5	0x3e6cd5a0	0.23128366
6	0xbe6d0f4b	-0.23150365
7	0x3ee4f061	0.44714645
8	0x3e803d94	0.2504698
9	0x3e8fbec5	0.28075233
10	0x3f0833e4	0.5320418
11	0x3eb6f00f	0.35730025
12	0x3ec85a75	0.39131513
13	0x3dd6ded7	0.10491722
14	0xbe153814	-0.14572173
15	0x3ea5b6ed	0.32366124

fc3.weight f4 [10, 16]
0	0x3efa0bcd	0.48837128
1	0xbebca42e	-0.3684401
2	0xbf56b01e	-0.83862484
3	0xbe5be650	-0.21474576
4	0xbe86dcbf	-0.2634029
5	0xbea66f43	-0.3250676
6	0xbdf7321f	-0.12070107
7	0x3e99e608	0.30058312
8	0xbdf31a41	-0.11870242
9	0x3f07d670	0.5306158
10	0xbede7c79	-0.4345434
11	0xbf4dd977	-0.8040995
12	0xbf61ddf7	-0.88229316
13	0x3f0cab13	0.5494854
14	0x3ef982a5	0.48732486
15	0xbf312f5b	-0.69212884
16	0x3e0ae723	0.13564734
17	0x3f261118	0.64869833
18	0x3d8e84f9	0.06958956
19	0x3f2f9a51	0.68594843
20	0xbdd30959	-0.10304517
21	0xbf366fb7	-0.71264213
22	0xbded2657	-0.11579578
23	0xbf19dc6a	-0.6010195
24	0xbdfab7d3	-0.12242093
25	0xbf02f2f9	-0.51151997
26	0xbe2518df	-0.16122769
27	0xbf2bbcad	-0.6708477
28	0x3df98e13	0.12185302
29	0x3e95a724	0.2922908
30	0x3e4c28ba	0.19937411
31	0xbee1ea4c	-0.44124067
32	0x3e65a8af	0.22427629
33	0xbf610085	-0.8789142
34	0x3d8a832c	0.067633
35	0x3f38313c	0.71950126
36	0xbe052851	-0.1300366
37	0x3ed62461	0.4182463
38	0xbd3ad87f	-0.045616623
39	0xbf255d4e	-0.64595497
40	0x3f220740	0.6329231
41	0xbeb13548	-0.34610963
42	0x3e499b81	0.19688226
43	0xbee5feac	-0.44920862
44	0x3f154b00	0.58317566
45	0xbf5e187a	-0.867561
46	0xbf461718	-0.7737899
47	0xbf40e82c	-0.75354266
48	0x3ec669eb	0.38752684
49	0xbf0d0152	-0.5508014
50	0x3ef57b7e	0.4794578
51	0xbf451117	-0.769792
52	0xbdb15583	-0.08658888
53	0xbf325b0e	-0.6967019
54	0x3e25d14d	0.16193123
55	0x3edbdf52	0.42943817
56	0xbee8506e	-0.45373863
57	0xbf101772	-0.56285775
58	0xbd05ea17	-0.03269395
59	0x3f32d97c	0.69863105
60	0xbf18b935	-0.59657604
61	0x3e67c23b	0.22632687
62	0xbf522e3d	-0.82101804
63	0x3eddbb0c	0.43306768
64	0xbf29b6c5	-0.6629451
65	0x3f03af90	0.5143976
66	0x3cf32ce3	0.02968449
67	0xbf63f58b	-0.89046544
68	0x3d2990e5	0.041397948
69	0xbf6180e6	-0.8808731
70	0xbd065920	-0.03279984
71	0x3e314cf2	0.17314509
72	0x3f244ef5	0.6418298
73	0x3e61a308	0.22034848
74	0x3ed7ab9a	0.4212311
75	0xbf0eeba5	-0.55828315
76	0x3f0af69d	0.5428255
77	0x3e4e16d3	0.20125894
78	0xbf27d8f1	-0.655654
79	0x3eca148c	0.394688
80	0xbf47c833	-0.78039855
81	0xbf1590ca	-0.58424056
82	0xbf4badff	-0.7956237
83	0xbf9815dc	-1.1881671
84	0xbca096c7	-0.019603146
85	0x3ee01f17	0.4377372
86	0xbe372a30	-0.17887187
87	0x3ec35f9f	0.3815889
88	0x3f27090f	0.652482
89	0x3e9a3b2c	0.3012327
90	0xbf2a4256	-0.6650747
91	0xbf3bd8fe	-0.7337798
92	0xbf004697	-0.5010771
93	0xbf3edad5	-0.7455266
94	0x3d9e4b82	0.07729246
95	0x3e82794f	0.25483176
96	0x3e218dcc	0.15776747
97	0xbf801c31	-1.0008603
98	0xbf13f599	-0.5779663
99	0xbf9025af	-1.12615
100	0x3c145be8	0.009055115
101	0x3f25ae41	0.64719015
102	0xbe24fff8	-0.1611327
103	0xbd522801	-0.051307682
104	0xbf23483a	-0.63782084
105	0xbf40f0ac	-0.75367236
106	0xbf0efcd8	-0.5585456
107	0xbf764199	-0.96193844
108	0x3e12b798	0.14327848
109	0x3eaf1950	0.34199
110	0xbd9285ab	-0.071544014
111	0x3e194d10	0.14970803
112	0xbeef4093	-0.46728954
113	0xbf5a9b16	-0.8539289
114	0x3eb5df08	0.35521722
115	0xbf855c6b	-1.0418829
116	0x3e28efea	0.1649777
117	0x3f0dbb68	0.55364084
118	0x3ddaeb94	0.10689464
119	0xbeaf6077	-0.34253284
120	0xbece2f98	-0.40270686
121	0x3ecaf801	0.39642337
122	0x3e88447f	0.26614758
123	0x3efef0a0	0.49792957
124	0xbf404dc3	-0.75118655
125	0xbf836b82	-1.0267184
126	0xbdb04a09	-0.08607871
127	0x3ef4b76c	0.4779619
128	0x3ee9c899	0.45660856
129	0xbf5bf978	-0.85927534
130	0x3e5c762b	0.21529453
131	0x3e814d39	0.2525423
132	0x3ceef8e3	0.029171413
133	0xbf3b5bae	-0.7318677
134	0xbcdcc27d	-0.026948208
135	0xbf1467c5	-0.5797084
136	0xbf59f2a1	-0.8513585
137	0x3edfc731	0.43706658
138	0x3efa5dda	0.48899728
139	0x3ca6d427	0.020364834
140	0xbf138174	-0.57619405
141	0x3e9be6cf	0.3044953
142	0x3dc31f9e	0.09527515
143	0xbda78ca1	-0.0818112
144	0x3e844b0d	0.2583851
145	0x3ec3fcb3	0.38278732
146	0x3ef45fa8	0.4772923
147	0xbf950fe3	-1.1645473
148	0xbcf42aac	-0.029805504
149	0x3ea6bf57	0.32567856
150	0x3d0a103f	0.0337069
151	0x3ee52df9	0.44761637
152	0xbf0326e5	-0.51231223
153	0xbf1c118a	-0.6096426
154	0xbf04290b	-0.51625127
155	0x3d7abb7e	0.061213963
156	0xbde87fbf	-0.11352491
157	0xbf7a2105	-0.97706634
158	0x3f086f59	0.53294903
159	0xbf7cdbaf	-0.9877271

fc3.bias f4 [10]
0	0xbdbabec0	-0.09118414
1	0xbe94f345	-0.2909185
2	0x3e42074e	0.18948099
3	0xbdad5350	-0.08463156
4	0x3d1b9dc9	0.037992273
5	0xbe441497	-0.1914848
6	0x3e4bc54d	0.19899483
7	0x3c0892bc	0.008335765
8	0xbe15ae4f	-0.14617275
9	0xbc2771a0	-0.010219961
