NeuraLite_Chatbot/model/demo.pth (torch, 8682 bytes, 6 tensors)

fc1.weight f4 [16, 58]
0.31943277 -0.29784155 -0.36258468 0.21275052 0.14305544 -0.08756058 0.33224994 0.33918476
0.21712871 -0.15527529 0.09943798 -0.23146275 0.38562486 0.51004845 0.21007049 0.11796817
-0.50522506 0.5255054 0.3871876 -0.29310787 0.23129186 0.46244913 0.38452965 0.5204198
-0.49862915 0.38313398 0.3604193 -0.1549017 0.628407 -0.45110622 0.23711194 0.32395056
0.18159688 -0.23725206 0.50801516 0.4398017 -0.11697703 0.32374212 -0.465559 -0.102172144
-0.024298161 0.3160676 -0.09366033 0.21352912 0.17148791 -0.028417286 -0.05054778 -0.12509808
0.65958697 0.19247913 0.35447457 0.45675063 0.37668732 0.38475743 -0.16152725 -0.2538013
0.21301375 0.0022299974 -0.31132388 -0.47750232 -0.14817984 -0.18591034 0.2814015 0.29114187
-0.036216382 -0.46096736 -0.10211434 0.3283817 0.057230275 -0.17370188 -0.46102658 -0.06138518
-0.12899034 0.2499543 0.60094887 0.056688633 -0.4609332 0.24278148 -0.14262517 -0.052179087
-0.22464986 0.2674824 0.2797578 -0.17032011 -0.17332797 -0.097961664 -0.1323623 0.26051024
-0.35280868 -0.102107674 0.08454916 -0.13375846 -0.30739266 -0.17065407 0.19601092 0.020264942
-0.5293501 0.27235082 0.30609563 -0.12000109 0.03675951 -0.3285114 -0.18408675 0.44926703
0.44183314 -0.06414688 -0.33735305 0.34179497 0.0829232 0.14685002 -0.1580648 0.009779661
0.60846156 0.21518809 0.25587532 0.18367317 -0.14184074 0.699794 -0.16989665 -0.13717707
0.41599473 -0.12912959 0.46439734 -0.39514938 0.13505198 -0.21169236 0.45246843 -0.27603626
-0.44521332 0.14791586 0.18930802 0.28285742 -0.4444654 0.09298402 -0.4400244 -0.17945439
-0.16064753 0.30663264 0.473682 0.535712 -0.5093787 0.62940264 -0.042997666 -0.15673704
0.59096646 0.4887413 -0.29747406 -0.26510173 0.13836488 -0.013655457 0.011891062 0.32709736
0.04317558 0.30324852 0.42256156 -0.28116205 -0.027139386 -0.044692658 0.17739432 -0.38186193
0.083926745 0.5495905 0.4601931 -0.15616271 0.07824199 0.25492907 0.4122582 0.3866769
0.20606531 0.3993755 -0.44566113 -0.149283 0.5055304 0.2984919 0.5206208 0.22084914
0.5593872 0.21811798 -0.28513196 -0.2795535 -0.20482425 0.2782773 -0.13364053 0.062980175
-0.13226417 0.5354331 0.38292176 0.20390157 0.3142665 -0.2105158 -0.05783338 0.019479044
0.5210192 0.19105256 0.6262938 -0.4742915 -0.37317395 -0.39460206 -0.11908473 0.23076583
0.118839055 0.38598636 0.47788662 -0.25944877 0.38027757 0.28265253 0.41171122 0.4594719
-0.1409721 0.2602734 0.04746737 -0.27143854 0.21969593 0.032126844 0.046746943 0.424851
-0.12809634 0.3939225 -0.22386993 -0.38790026 -0.49565515 0.28061646 0.58357877 -0.41646975
-0.024095679 -0.31775096 0.62160003 -0.012247945 -0.4772995 0.05598219 -0.027699687 -0.27379656
-0.023572026 -0.3311226 0.4558993 0.3004232 0.19421764 0.23345968 0.21127586 0.55209935
-0.1027709 0.047988866 -0.053922363 0.49522075 0.54708785 0.017693175 -0.17149289 -0.13297863
0.8951222 -0.07968957 0.41941133 0.14618756 0.025751686 0.08823369 -0.0899817 0.21892712
00000000: b18c a33e b07e 98be b3a4 b9be 46db 593e
00000010: 207d 123e f652 b3bd aa1c aa3e a0a9 ad3e
00000020: fd56 5e3e 7c00 1fbe 24a6 cb3d 9204 6dbe
00000030: 9f70 c53e 8992 023f b81c 573e 4c99 f13d
00000040: 6e56 01bf 8687 063f 743d c63e 3c12 96be
00000050: c6d7 6c3e 22c6 ec3e 12e1 c43e 3b3a 053f
00000060: 524c ffbe 232a c43e e188 b83e 8d9e 1ebe
00000070: 48df 203f 65f7 e6be 79cd 723e d9dc a53e
00000080: 88f4 393e 34f2 72be 480d 023f b02d e13e
00000090: a791 efbd 87c1 a53e c05d eebe a13f d1bd
000000a0: f00c c7bc 9dd3 a13e fdd0 bfbd 61a7 5a3e
000000b0: 879a 2f3e 5ecb e8bc 300b 4fbd b619 00be
000000c0: b1da 283f 4019 453e b17d b53e 38db e93e
000000d0: 29dd c03e edfe c43e 6667 25be 3ef2 81be
000000e0: 4720 5a3e 2625 123b d865 9fbe 2f7b f4be
000000f0: 75bc 17be 485f 3ebe db13 903e 8c10 953e
00000100: a157 14bd ea03 ecbe 5321 d1bd a521 a83e
00000110: 4b6a 6a3d e8de 31be ad0b ecbe 076f 7bbd
00000120: 0b16 04be 05f4 7f3e c9d7 193f 5732 683d
00000130: 70ff ebbe b59b 783e 550c 12be bdb9 55bd
00000140: 9d0a 66be 74f3 883e 6a3c 8f3e 6568 2ebe
00000150: e37c 31be 20a0 c8bd fc89 07be 9961 853e
00000160: 57a3 b4be d41d d1bd 1c28 ad3d faf7 08be
00000170: 9262 9dbe f1bf 2ebe 16b7 483e aa02 a63c
00000180: 7d83 07bf 9171 8b3e 91b8 9c3e 22c3 f5bd
00000190: 2491 163d a532 a8be 3d81 3cbe 5406 e63e
000001a0: f437 e23e 705f 83bd 8ab9 acbe c0ff ae3e
000001b0: a4d3 a93d da5f 163e bddb 21be df3a 203c
000001c0: 23c4 1b3f 445a 5c3e 1702 833e d214 3c3e
000001d0: b33e 11be b325 333f 63f9 2dbe 2578 0cbe
000001e0: 43fd d43e 8c3a 04be 7dc5 ed3e 0551 cabe
000001f0: 114b 0a3e e2c5 58be f1a9 e73e a054 8dbe
00000200: 00f3 e3be 4177 173e f6d9 413e b0d2 903e
00000210: f890 e3be 686e be3d e14a e1be e4c2 37be
00000220: c980 24be f4fe 9c3e 7286 f23e 6c24 093f
00000230: a466 02bf 8820 213f 521e 30bd ad7f 20be
00000240: 9449 173f 4d3c fa3e 854e 98be 6abb 87be
00000250: 86af 0d3e 23bb 5fbc bbd2 423c 4e79 a73e
00000260: e1d8 303d 6443 9b3e fd59 d83e 79f4 8fbe
00000270: 6b53 debc a60f 37bd dba6 353e 6883 c3be
00000280: c9e1 ab3d f7b1 0c3f 6e9e eb3e 1ee9 1fbe
00000290: 563d a03d 1086 823e 8213 d33e 84fa c53e
000002a0: c902 533e f27a cc3e b22d e4be a5dd 18be
000002b0: 716a 013f eed3 983e 6847 053f 4726 623e
000002c0: 0034 0f3f 525a 5f3e d1fc 91be a321 8fbe
000002d0: 73bd 51be 5d7a 8e3e 10d9 08be c0fb 803d
000002e0: 4270 07be 2512 093f 520e c43e 93cb 503e
000002f0: 8ae7 a03e 7491 57be b2e2 6cbd 8492 9f3c
00000300: 8461 053f 48a3 433e ca54 203f 56d6 f2be
00000310: a810 bfbe 4809 cabe b2e2 f3bd e14d 6c3e
00000320: e461 f33d 01a0 c53e 8ead f43e 78d6 84be
00000330: beb3 c23e d5b7 903e d0cb d23e e73f eb3e
00000340: fd5a 10be 8e42 853e 256d 423d fef9 8abe
00000350: f8f7 603e 7097 033d b979 3f3d 1286 d93e
00000360: b02b 03be 36b0 c93e 293e 65be dd9a c6be
00000370: 83c6 fdbe f6ac 8f3e 6b65 153f 863b d5be
00000380: 4d64 c5bc 41b0 a2be 2e21 1f3f 9bab 48bc
00000390: 9a60 f4be 954d 653d 74ea e2bc 102f 8cbe
000003a0: 1f1a c1bc e788 a9be a26b e93e 12d1 993e
000003b0: fde0 463e 0e10 6f3e b358 583e 6256 0d3f
000003c0: 8d79 d2bd f98f 443d b2dd 5cbd 938d fd3e
000003d0: f30d 0c3f 47f1 903c d59b 2fbe 8d2b 08be
000003e0: ba26 653f 4934 a3bd 15bd d63e 31b2 153e
000003f0: 33f5 d23c ddb3 b43d 5348 b8bd 6e2e 603e

fc1.bias f4 [16]
0.5941339 0.4592641 0.44551224 0.47727105 0.5657481 0.3597224 0.01808367 0.42131495
0.42857763 0.31350562 0.33989698 0.36593997 0.3674973 0.26467875 0.34255198 0.5055835
00000000: 2919 183f aa24 eb3e 2e1a e43e df5c f43e
00000010: ded4 103f 892d b83e 3424 943c 98b6 d73e
00000020: 876e db3e cf83 a03e fa06 ae3e 7c5c bb3e
00000030: 9b28 bc3e f983 873e f962 af3e ec6d 013f

fc2.weight f4 [16, 16]
-0.14794949 0.54246116 -0.49735796 0.32289696 0.61998874 0.5378144 0.10701474 0.5532241
0.7433273 0.66675085 -0.7848856 0.20551586 -0.041736603 0.035604037 -0.3282791 0.37273064
0.4997215 -0.05946539 0.8535008 -0.74777395 -0.49425918 0.070550494 0.5236579 0.30528024
-0.09111529 0.80635846 0.50199795 0.5769506 -0.8159934 0.63260746 0.3639938 0.46783668
0.7668293 0.37154955 0.34832793 0.3218387 -0.1497727 0.5068525 -0.37227714 0.75659424
-0.38753724 -0.13027519 -0.3863988 -0.130042 -0.2603133 -0.4439828 0.15626636 0.9035652
0.12522046 0.0258914 0.618697 0.45853674 0.16116498 -0.19314596 0.30075473 -0.6794169
-0.15317465 0.1463295 0.4889381 0.6192905 0.57468724 0.58290756 0.84615785 -0.35880756
0.14112043 0.87235874 0.18682984 -0.5715645 0.7019646 0.70554054 -0.20178702 0.9086677
-0.054496713 -0.26503155 -0.028537912 0.08971066 -0.5750651 -0.102347866 0.2650028 0.28791842
-0.024100361 0.048197143 -0.2281007 0.18721475 0.047644984 -0.10093287 0.015011919 -0.23894025
-0.00054802065 -0.24382867 -0.00097647007 0.11482167 -0.15055901 0.029842079 -0.024467848 -0.06772378
0.05807921 0.7388179 -0.26490822 -0.40085885 0.55951554 0.5793302 -0.45143872 0.84247583
-0.061691858 -0.70103914 0.7389322 0.6238665 -0.25667334 -0.5795445 0.11434359 0.93432456
-0.05614005 -0.16508615 -0.12792987 0.021041734 -0.2699791 -0.03186503 0.04053366 -0.23224868
-0.04536447 0.04239893 -0.05677882 0.0031821115 0.024321005 -0.04252869 0.13657364 -0.1793272
-0.15777615 -0.21863064 0.07610224 0.23843253 0.7310287 0.13837379 0.5931093 0.07562138
0.7407107 0.719771 0.15417564 -0.2815709 0.34876648 0.84635854 -0.36877337 -0.3433674
-0.049717672 0.65102196 -1.0353751 -0.7430028 -0.6319858 -0.09023884 -0.7775709 0.25340852
0.12103154 0.12596984 0.81048375 0.62475634 0.26345208 0.12323225 -0.22809644 0.8291289
-0.100108825 0.6152409 0.48357105 -0.2877768 0.024578614 0.5837669 -0.1842208 0.5158862
-0.27692738 -0.5278583 0.9027056 -0.0715498 0.5100074 -0.053078927 1.0041392 -0.011740339
0.80623406 -0.5401448 0.26538557 0.5582521 0.70688766 0.52124643 -0.5112873 0.53248924
-0.41752374 -0.6369457 -0.6342193 -0.41490462 0.23854479 -0.53409064 0.3767761 0.724513
0.304592 -0.97674096 0.022169603 0.84621304 0.35231978 -0.60907966 0.31135085 -0.68516165
0.8916996 0.58075726 0.14535123 -0.519826 0.9204343 0.087116 0.14232065 0.45333478
-0.8060048 0.5807686 -0.6972289 0.30621326 0.65917695 0.5690221 -0.11151083 0.012004349
0.49825692 0.32932648 0.56426454 0.6624475 -0.58190316 0.5156298 0.48096249 -1.1474848
0.57650006 -0.68779707 0.4896758 0.66729784 0.36601627 0.30649176 -0.52544606 0.38635656
0.012871644 -0.37169552 -0.13778411 -0.5280534 0.7643375 -0.4406135 0.53706354 0.37327906
0.22911079 0.30018765 -0.78559905 0.18840565 0.28479844 0.30021852 0.21197629 0.51966935
0.74626684 0.776145 -0.59579504 0.16905409 0.0031104747 0.32790047 -0.8353609 0.79827446
00000000: 1280 17be bcde 0a3f b4a5 febe c052 a53e
00000010: 95b7 1e3f 34ae 093f 8b2a db3d 18a0 0d3f
00000020: b34a 3e3f 2fb0 2a3f 43ee 48bf c072 523e
00000030: 00f4 2abd 8ad5 113d 3314 a8be 8dd6 be3e
00000040: 7fdb ff3e fb91 73bd 077f 5a3f 1d6e 3fbf
00000050: 8a0f fdbe c77c 903d 720e 063f b14d 9c3e
00000060: a79a babd 826d 4e3f f082 003f 09b3 133f
00000070: f2e4 50bf 90f2 213f 655d ba3e 4a88 ef3e
00000080: ed4e 443f be3b be3e 0a58 b23e 0bc8 a43e
00000090: 045e 19be 16c1 013f 1c9b bebe 29b0 413f
000000a0: 486b c6be dc66 05be 10d6 c5be bb29 05be
000000b0: c947 85be b751 e3be 4a04 203e 0d50 673f
000000c0: cb39 003e 341a d43c ed62 1e3f 54c5 ea3e
000000d0: 6f08 253e 0ec8 45be 86fc 993e 44ee 2dbf
000000e0: d1d9 1cbe 67d7 153e 1856 fa3e d289 1e3f
000000f0: b41e 133f 6e39 153f cd9d 583f a0b5 b7be
00000100: e081 103e e752 5f3f 5250 3f3e 0d52 12bf
00000110: f4b3 333f 4e9e 343f 42a1 4ebe 729e 683f
00000120: f237 5fbd 37b2 87be 57c8 e9bc 39ba b73d
00000130: 7737 13bf c29b d1bd 72ae 873e 0b6a 933e
00000140: 1f6e c5bc 5e6a 453d 3b93 69be 39b5 3f3e
00000150: 6327 433d e4b5 cebd 8df4 753c c1ac 74be
00000160: 0ba9 0fba 39ae 79be ccf9 7fba a027 eb3d
00000170: 242c 1abe 6077 f43c cc70 c8bc c4b2 8abd
00000180: 77e4 6d3d 2b23 3d3f 0da2 87be 5f3d cdbe
00000190: 693c 0f3f fc4e 143f fa22 e7be 7fac 573f
000001a0: 9ab0 7cbd 4d77 33bf a92a 3d3f b7b5 1f3f
000001b0: b06a 83be 075d 14bf f92c ea3d e52f 6f3f
000001c0: 1cf3 65bd 580c 29be 0c00 03be b75f ac3c
000001d0: b33a 8abe e884 02bd a006 263d 99d2 6dbe
000001e0: 18d0 39bd 80aa 2d3d e890 68bd f98a 503b
000001f0: d83c c73c 9032 2ebd f6d9 0b3e 8da1 37be
00000200: 1290 21be b6e0 5fbe 7edb 9b3d a827 743e
00000210: b224 3b3f dcb1 0d3e 03d6 173f 62df 9a3d
00000220: 379f 3d3f ea42 383f 38e0 1d3e 102a 90be
00000230: 8591 b23e f4aa 583f ddcf bcbe dacd afbe
00000240: c2a4 4bbd 60a9 263f 2c87 84bf 6e35 3ebf
00000250: d2c9 21bf 24cf b8bd e30e 47bf c3be 813e
00000260: 62df f73d 3dfe 003e dd7b 4f3f 08f0 1f3f
00000270: 31e3 863e 3161 fc3d 1d92 69be cb41 543f
00000280: db05 cdbd 6d80 1d3f a096 f73e 7b57 93be
00000290: 1759 c93c bf71 153f 61a4 3cbe 1e11 043f
000002a0: 6dc9 8dbe b921 07bf b717 673f b488 92bd
000002b0: d88f 023f 4a69 59bd a287 803f 8d5a 40bc
000002c0: 5b65 4e3f ee46 0abf 9ee0 873e 9ce9 0e3f
000002d0: 97f6 343f 6870 053f b9e3 02bf 3751 083f
000002e0: acc5 d5be e00e 23bf 325c 22bf 616e d4be
000002f0: 1645 743e 2aba 08bf cce8 c03e af79 393f
00000300: 7cf3 9b3e b20b 7abf 079d b53c 6ba1 583f
00000310: 4263 b43e a5ec 1bbf 6169 9f3e c166 2fbf
00000320: 6d46 643f 82ac 143f f4d6 143e 5113 05bf
00000330: 95a1 6b3f e069 b23d 81bc 113e 7f1b e83e
00000340: 5556 4ebf 40ad 143f 987d 32bf fcc7 9c3e
00000350: d2bf 283f 6fab 113f ca5f e4bd e4ad 443c
00000360: 881b ff3e 7b9d a83e a473 103f 2996 293f
00000370: 9bf7 14bf 5100 043f b740 f63e c8e0 92bf
00000380: 8295 133f 7813 30bf c9b6 fa3e 08d4 2a3f
00000390: 7c66 bb3e 7dec 9c3e a283 06bf 87d0 c53e
000003a0: 97e3 523c e04e bebe 4717 0dbe 822e 07bf
000003b0: 9fab 433f 1898 e1be ff7c 093f 6f1e bf3e
000003c0: 059c 6a3e 32b2 993e 051d 49bf 69ed 403e
000003d0: 1ad1 913e 3eb6 993e 5010 593e 0d09 053f
000003e0: 580b 3f3f 70b1 463f 0686 18bf 841c 2d3e
000003f0: 1bd9 4b3b 92e2 a73e 36da 55bf b75b 4c3f

fc2.bias f4 [16]
0.23127408 0.42788798 0.4562838 0.082454994 0.44990546 -0.21178791 0.36474147 -0.06478536
0.06855562 0.08000577 0.44311765 0.14924055 0.27226955 0.3378164 0.31865996 0.29292217
00000000: 1dd3 6c3e 2214 db3e 089e e93e 2ade a83d
00000010: 025a e63e eede 58be 65bf ba3e 30ae 84bd
00000020: e466 8c3d 11da a33d 51e0 e23e 84d2 183e
00000030: ea66 8b3e 45f6 ac3e 6627 a33e e5f9 953e

fc3.weight f4 [10, 16]
-0.67843217 -0.08334331 -0.875938 0.33524138 -0.695024 -0.0212354 -0.69014066 -0.14803001
0.51178956 -0.67865133 0.4787898 -0.8197144 0.58444095 -0.59482557 0.2566676 -0.7810726
0.22905765 -0.554404 -0.5184508 -0.021423295 -0.8907096 -0.21873839 -0.54787093 0.021274373
0.53270495 -1.2961426 -0.82412 -0.5040779 0.38966295 0.5073479 -0.7341658 0.25457242
0.5565723 -0.75412756 0.083830304 -0.7739474 0.29582855 -0.1334988 0.014164399 0.0018816779
0.40718102 -0.75226825 0.023868045 -0.5583554 -0.87120414 0.3606811 -0.7884493 0.47583127
0.293857 -0.93716097 0.06129881 -0.4335656 -0.15665095 0.11924468 0.040917482 0.040907927
0.1728955 -0.72062093 -0.5320091 0.4445081 0.2521755 -0.72528267 0.3237634 0.57654345
-0.37769315 0.07564506 0.51089036 -0.62752557 0.6478839 -0.06677244 0.41935608 -0.025879432
-0.89471483 -0.9440159 0.4558457 0.41970393 -0.82226014 -0.6376981 0.26695466 -0.56157655
-0.15209623 -0.5236809 -0.6355373 0.35304388 0.042075746 -0.083203085 0.34202626 0.09841061
-0.79069567 0.61706734 0.34928074 -0.55351526 -0.7414898 0.62938416 -0.481557 -0.6078249
0.07659329 0.62290084 -0.085625455 -0.13539664 -0.3268615 0.03691598 -0.63890857 -0.21974505
0.14443345 0.55380017 -0.82695335 -0.70726657 0.11981998 -0.9956295 -0.51851094 0.4253726
-0.8643339 0.70272 -0.14970776 0.2911716 0.0057517793 0.019090246 -0.27232966 -0.15179569
-0.060875393 -1.2715625 0.27288046 -0.48280317 -0.73144764 -0.24251032 -1.103599 -0.6544758
-0.67840415 -0.71178955 0.38057345 0.20207691 -0.54190177 0.1857303 -0.8553198 -0.12621771
-0.70825714 -0.7147384 0.10565101 0.4226257 0.22697179 -0.8209622 0.6504574 -0.31349805
0.07033195 -0.2757689 0.39472413 -0.90426445 0.10748955 0.06713908 0.50969416 -0.2486678
-0.849159 0.9306951 0.20778106 -0.7411476 -0.6613916 -0.22566973 -0.86031085 0.39561924
00000000: bbad 2dbf e6af aabd 793d 60bf c2a4 ab3e
00000010: 18ed 31bf ddf5 adbc 0fad 30bf 2e95 17be
00000020: a404 033f 18bc 2dbf f023 f53e ced8 51bf
00000030: ec9d 153f 7d46 18bf f069 833e 60f4 47bf
00000040: 178e 6a3e 6ced 0dbf 31b9 04bf e87f afbc
00000050: 8b05 64bf f5fc 5fbe 4541 0cbf 9847 ae3c
00000060: 5a5f 083f 00e8 a5bf 87f9 52bf 400b 01bf
00000070: e781 c73e 8de1 013f 4af2 3bbf 5157 823e
00000080: 867b 0e3f 810e 41bf 39af ab3d 6b21 46bf
00000090: d776 973e e9b3 08be cc11 683c a2a2 f63a
000000a0: 087a d03e a794 40bf eb86 c33c 61f0 0ebf
000000b0: 3c07 5fbf 31ab b83e d0d7 49bf 28a0 f33e
000000c0: 6d74 963e c8e9 6fbf 7614 7b3d 4ffc ddbe
000000d0: 1b69 20be 8e36 f43d 1799 273d 128f 273d
000000e0: 850b 313e 9d7a 38bf c031 08bf 9196 e33e
000000f0: 261d 813e 20ac 39bf 51c4 a53e 5a98 133f
00000100: ff60 c1be cceb 9a3d b6c9 023f 84a5 20bf
00000110: b8db 253f fdbf 88bd d7b5 d63e 1a01 d4bc
00000120: 080c 65bf 07ab 71bf 9c64 e93e 6fe3 d63e
00000130: a47f 52bf 2f40 23bf 48ae 883e 7bc3 0fbf
00000140: 1dbf 1bbe f40f 06bf 93b2 22bf 2bc2 b43e
00000150: 9e57 2c3d 6166 aabd 111e af3e 808b c93d
00000160: 086b 4abf 20f8 1d3f edd4 b23e 2db3 0dbf
00000170: 47d2 3dbf 521f 213f a48e f6be 6a9a 1bbf
00000180: f1dc 9c3d 6e76 1f3f 665c afbd 6ba5 0abe
00000190: 645a a7be 3635 173d 838f 23bf d904 61be
000001a0: 5de6 133e d9c5 0d3f 37b3 53bf 6c0f 35bf
000001b0: 2d64 f53d 93e1 7ebf 22bd 04bf 70ca d93e
000001c0: fd44 5dbf 75e5 333f fe4c 19be 7214 953e
000001d0: 6c79 bc3b 2663 9c3c cb6e 8bbe 5470 1bbe
000001e0: 7a58 79bd 8fc2 a2bf fdb6 8b3e fa31 f7be
000001f0: 2740 3bbf a054 78be bb42 8dbf ba8b 27bf
00000200: e5ab 2dbf d737 36bf 86da c23e 40ed 4e3e
00000210: 13ba 0abf 1530 3e3e 3df6 5abf 373f 01be
00000220: 5750 35bf 19f9 36bf 8f5f d83d 6562 d83e
00000230: 4b6b 683e 942a 52bf 6084 263f d182 a0be
00000240: 330a 903d 9531 8dbe 4819 ca3e e07d 67bf
00000250: 7b23 dc3d 3780 893d 517b 023f c6a2 7ebe
00000260: 7c62 59bf 0942 6e3f 8fc4 543e d9bb 3dbf
00000270: f650 29bf f715 67be 553d 5cbf 9b8e ca3e

fc3.bias f4 [10]
0.22275501 -0.2437087 -0.3398652 -0.036558814 -0.17695284 -0.21301647 -0.09328042 -0.019874047
0.021114474 -0.21928
00000000: e419 643e c68e 79be d002 aebe b2be 15bd
00000010: 2033 35be fd20 5abe ce09 bfbd e6ce a2bc
00000020: 43f8 ac3c f08a 60be
